LAB2/best/mode_FT.pth (torch, 26542 bytes, 14 tensors)

weight f4 [22, 1, 22, 1]
000000 0a 9a 62 3d 29 ce 7c bd 68 ee 3b bd 01 92 b2 3c
       0.055322684 -0.061720047 -0.04588166 0.021798136
000010 7d 84 81 bc 5d fe 32 bd f4 75 0b be ce 7c c8 3d
       -0.015810246 -0.04369961 -0.13619214 0.097894296
000020 6c 86 3e 3e 2a 2c bf 3b d2 0b 02 3e 44 0b 04 be
       0.18605965 0.005834122 0.12699822 -0.12894922
000030 ae 31 a4 bd 93 4d 80 3c 98 42 92 bd 58 52 80 be
       -0.08017288 0.01566199 -0.07141608 -0.25062823
000040 4b f3 97 3d 30 28 1e 3e 43 0a 80 3e 59 ad 16 bd
       0.07419451 0.15445018 0.2500783 -0.03678641
000050 4c 5c 9b 3d 7d 63 4e be c1 51 3c bd 7e 3d ed bc
       0.075859636 -0.2015514 -0.045976404 -0.028959986
000060 91 18 ea 3d 35 dd 96 3b 8b 27 06 3e df 7a e9 3d
       0.11430467 0.0046040067 0.13101022 0.11400389
000070 62 19 1b be 4b 4d 48 bd 49 70 16 3e 94 44 f3 3c
       -0.15146402 -0.048901837 0.14691271 0.029695787
000080 0e b4 b2 bd 9a 16 69 3e 05 87 02 be 6f 0c a3 3d
       -0.08725749 0.22762528 -0.12746818 0.07961356
000090 fc af 61 3d 3f c9 c2 bd 2a b0 1e 3e 85 ea e2 3d
       0.055099472 -0.09511041 0.15496889 0.11079887
0000a0 83 de 8c bc 21 2c 1d 3e 5c 62 7d bd 53 d6 f3 3c
       -0.017195946 0.15348865 -0.06186138 0.029765284
0000b0 fd b5 72 3d 43 f6 4f 3e 9d fe f1 3d b9 e7 3a be
       0.05925559 0.20308785 0.11816142 -0.18252458
0000c0 f0 f5 96 3d d5 53 09 bd 6c 30 d7 3d d2 2f 2d be
       0.073711276 -0.033527214 0.105072826 -0.16912773
0000d0 48 83 2b be c7 5b cf bd d6 74 2a be 15 03 95 3d
       -0.16749299 -0.10124927 -0.16646132 0.072759785
0000e0 38 eb 49 be 0e b9 81 bd a2 34 63 3e d3 8d 57 3d
       -0.19718635 -0.063341245 0.22188047 0.05262549
0000f0 db 61 a6 bd 12 c6 e6 3d 01 a2 53 3e aa 58 c2 bd
       -0.08124133 0.11268248 0.20667268 -0.094895676
000100 22 c7 b2 3d e3 f5 2b bd 79 d6 20 bd fa dd ac 3d
       0.08729388 -0.041982543 -0.039267037 0.08440776
000110 b8 77 83 3d 3e fe 53 bd dc 22 06 be c3 98 2a 3e
       0.06419319 -0.051756136 -0.13099235 0.16659836
000120 24 2b 83 bd cf 54 8f bb ac 0d 24 3e 6f b9 f1 bd
       -0.06404713 -0.0043741236 0.1602084 -0.11802947
000130 1a 86 27 be d2 b8 02 3e 4e 74 9b 3c 50 01 ff bd
       -0.1635975 0.12765816 0.018976357 -0.12451422
000140 df 9b 8a 3d 97 b7 c2 3d a3 a3 ba 3c 0b 72 8e 3d
       0.06768011 0.09507673 0.022783106 0.06955346
000150 e9 72 25 3e 3e 43 80 bd ec 54 14 be fb 89 11 3d
       0.16157116 -0.062628254 -0.1448552 0.03553198
000160 76 e2 b9 3d 91 72 0a be 02 75 61 3e 8c 2b 45 be
       0.09076397 -0.13520266 0.22017291 -0.19254893
000170 1f bf 25 bc 16 01 ad 3d d3 4f 3e 3d 75 f4 00 3e
       -0.010116368 0.08447473 0.046462845 0.12593253
000180 1c f3 96 3d 6f ed 60 bd 63 43 6a bd e2 0e 0e 3e
       0.07370588 -0.054913934 -0.05719317 0.13872865
000190 98 9c 2e be f7 6a 2c 3d 0d 5d 35 be c1 85 21 be
       -0.17051923 0.042094197 -0.17711277 -0.1577368
0001a0 b1 06 65 3d 3d 32 53 bd 96 14 87 3d fc cf bf bd
       0.055914585 -0.051561583 0.06595723 -0.09365842
0001b0 ef a8 0e 3e b0 4f 20 bc da e6 7e bd 4b 7b 25 3e
       0.1393163 -0.009784624 -0.062231876 0.16160314
0001c0 e9 04 f2 3d 0c b4 8c bc ee 1b 06 3e d8 b1 0a 3d
       0.11817343 -0.017175697 0.13096592 0.03386101
0001d0 31 8f 23 be a6 c3 2b 3d c9 59 a9 bd 81 2e a4 3d
       -0.15972592 0.04193463 -0.08269078 0.080166824
0001e0 f2 94 dc bd 9f 4f 76 be 61 7f 55 3e 79 0b f3 3d
       -0.107705966 -0.2405381 0.20849372 0.118674226
0001f0 f1 8f 3c be 23 9b 72 3c 56 88 3c be ef 81 61 bc
       -0.18414284 0.014807495 -0.18411383 -0.013763889
000200 d2 62 64 3e cd eb f0 bd 72 64 bc 3d 64 ff a4 bd
       0.22303322 -0.117637254 0.09198846 -0.080565244
000210 8e d2 af 3d 40 86 93 3c cf 0a 47 be 3c 3c df bd
       0.08585082 0.018008351 -0.19437717 -0.10900161
000220 ee c6 25 3e ef c4 39 3e 59 ab 58 bd 3c 1a 24 3e
       0.16189167 0.1814153 -0.052897785 0.16025633
000230 60 82 17 3b 97 1f 9b bd b5 22 2c 3d 8d 16 84 be
       0.002311848 -0.07574385 0.042025287 -0.25798455
000240 cd 81 43 3d bc f7 d9 bd 37 64 83 3e e5 a8 64 bd
       0.04773121 -0.10642955 0.25662395 -0.055825133
000250 56 ca 12 be d6 78 d0 3c 98 05 9a bd ae cc 0e b8
       -0.14334998 0.025448244 -0.07520598 -3.404606e-05
000260 af 45 42 3c be 39 a7 3d 41 55 23 be 8d 57 41 bc
       0.011857434 0.0816531 -0.1595049 -0.011800659
000270 06 fb 1f 3e cc 34 3e be 53 35 e5 3d 2b c2 25 bd
       0.15623102 -0.18574828 0.111918114 -0.040468376
000280 b9 dd 73 bd 64 fc cf 3d 61 56 b0 3d a4 32 15 be
       -0.059537623 0.101555616 0.086102255 -0.14570099
000290 9e ee dc bb b1 4e 46 3e 6d 37 04 3c a9 ee 79 3d
       -0.0067423126 0.19365956 0.008069855 0.06101862
0002a0 70 3b 4c 3e 11 12 70 bc 06 01 2f be 50 1e 0c 3e
       0.19944549 -0.014652745 -0.17090234 0.13683438
0002b0 9d a7 38 3e cc 15 3d be 96 ca 43 be e9 e1 79 bd
       0.1803269 -0.18465346 -0.19120249 -0.06100646
0002c0 e5 7f fc bd 2d 5c 8e 3d c7 1f b1 3d 27 75 5f 3c
       -0.123290814 0.06951175 0.08648639 0.013638771
0002d0 cd e0 1e 3e 64 74 26 be 80 c7 2f be bf 98 9b bd
       0.15515442 -0.16255337 -0.17165947 -0.075974934
0002e0 53 52 81 3c a8 bd ec bd b8 fe 6e 3d d8 4e bf 3d
       0.015786326 -0.115596116 0.058348387 0.0934121
0002f0 5c 32 80 be c7 34 fe bd 45 7a 02 3e 42 5c 59 be
       -0.2503842 -0.1241241 0.12741955 -0.212266
000300 8a 63 95 bb e9 26 10 3e 5b da 53 3e 7b 03 93 bb
       -0.004558985 0.14077343 0.20688765 -0.004486499
000310 d5 fe ef 3d f6 6e 21 bd 55 19 3c 3e e6 01 80 bd
       0.11718527 -0.03941246 0.18369038 -0.06250362
000320 9d 9f bd 3d 11 c2 53 bd 43 dc f4 bd 58 38 2e be
       0.092589594 -0.051698748 -0.11956074 -0.17013681
000330 73 1f b0 bd 51 b8 f6 3d a0 16 6a 3e 97 da 01 be
       -0.085997485 0.12046874 0.22860193 -0.12681042
000340 e6 67 02 3d f7 e6 a7 3d fe 28 2e 3d ef b5 7c bd
       0.031837367 0.0819835 0.042519562 -0.061696943
000350 eb 43 1b be 3a 14 21 3e 87 75 83 be 30 d8 d7 3d
       -0.15162627 0.15730372 -0.25675604 0.10539281
000360 fd 15 93 bd e5 16 ef 3d da ee 97 3d 9b 43 11 bd
       -0.07181928 0.11674289 0.07418604 -0.035464864
000370 61 37 a0 3d 42 76 16 3e 05 71 e8 bd 18 e2 06 bd
       0.07823063 0.1469355 -0.11349682 -0.032930464
000380 61 ca 1a 3d 79 72 c8 bd 2b bd e1 bd a6 92 41 bd
       0.03779066 -0.09787459 -0.11022409 -0.047258995
000390 95 f0 51 3e 30 c4 00 be c5 61 32 be 76 4b f6 bd
       0.20501931 -0.1257484 -0.17420109 -0.12026112
0003a0 56 fc 57 3e 49 be c0 bd ed 20 be 3d fd 3d 29 be
       0.21092352 -0.09411294 0.09283624 -0.16527553
0003b0 02 b3 2f 3e 3c 14 79 bd 43 b9 11 3e 9c b1 d6 3c
       0.1715813 -0.060810313 0.14230828 0.026207738
0003c0 ed 98 43 3d 8b 06 2e be 8a 11 27 3e c7 21 34 be
       0.047753263 -0.16994683 0.16315284 -0.1759101
0003d0 0f c6 3d be df 0f 60 3b f0 4a 3b 3d 53 f0 c0 3d
       -0.18532585 0.0034189147 0.045725763 0.09420838
0003e0 6b 26 54 3d 63 5c 53 3c 21 ef c3 3d 1f 23 5c 3e
       0.05179445 0.012900445 0.095670946 0.21497773
0003f0 25 15 48 be 89 60 5a 3d 4c 00 8c 3c 18 2c 17 3e
       -0.19539316 0.05331472 0.017089985 0.14762914

bias f4 [22]
000000 f3 6a a7 b6 18 23 c2 36 0c a7 7e b7 b2 9d 78 37
       -4.9894384e-06 5.785736e-06 -1.5178473e-05 1.4818668e-05
000010 e3 ce 8c b8 41 42 f3 b5 2a 8f 5d 38 f2 da 36 b8
       -6.714256e-05 -1.8124193e-06 5.2823838e-05 -4.359609e-05
000020 b5 d8 1d 35 6d 8b ce 37 bd 04 66 b2 e0 30 29 37
       5.880241e-07 2.4622039e-05 -1.3388839e-08 1.0084565e-05
000030 4a f0 8f b7 1e 11 fa 35 0c 12 15 39 6b 60 02 b6
       -1.7158822e-05 1.8631433e-06 0.0001421647 -1.9427632e-06
000040 02 48 75 b4 0e 55 99 37 d2 53 23 b7 07 49 cd b6
       -2.28436e-07 1.8278628e-05 -9.735073e-06 -6.1179776e-06
000050 f2 c8 c0 37 28 c2 3d 36
       2.2981756e-05 2.8276208e-06

weight f4 [22]
000000 8a 17 8b 3f f9 83 5a 3f fa 7f 67 3f 7a 3c 76 3f
       1.0866559 0.85357624 0.9042965 0.9618603
000010 95 d5 7c 3f 69 c7 7e 3f fb b5 8f 3f 29 87 82 3f
       0.987634 0.99523026 1.1227411 1.0197498
000020 85 31 69 3f 10 63 65 3f 3e bc 66 3f 9f 13 6b 3f
       0.91091186 0.8960428 0.90130985 0.91826814
000030 00 9a 77 3f 55 55 86 3f 56 08 8d 3f f3 a2 70 3f
       0.9671936 1.0494791 1.1018169 0.9399864
000040 42 16 71 3f c1 94 77 3f 79 7e 64 3f 9e a7 5c 3f
       0.9417459 0.96711355 0.8925548 0.86193264
000050 dd e7 57 3f 2e f0 79 3f
       0.8433817 0.9763211

bias f4 [22]
000000 7f f2 8a bd 53 a9 ab bd 28 d6 b2 3d 2d af 87 3c
       -0.06784534 -0.083819054 0.08732253 0.016563023
000010 5e e6 e6 3b 35 28 ba b9 fa 17 9c 3d 78 00 4f bd
       0.007046505 -0.0003550664 0.07621761 -0.050537556
000020 4b e9 da 3a b8 15 d1 bc 8f 9b ea bd fa 2b a4 3d
       0.0016701607 -0.025523052 -0.11455452 0.080162
000030 0a c6 86 bd 44 c4 ca 3d 13 f5 16 bd 07 0d da 3d
       -0.06580742 0.09900716 -0.036854815 0.10647016
000040 24 68 c3 bd a7 0f ae bc 01 d5 0f bd e0 6a 52 bd
       -0.095413476 -0.021247698 -0.035115246 -0.051371455
000050 13 f4 55 bd fd 0b fa bd
       -0.05223472 -0.12209318

running_mean f4 [22]
000000 fe 13 b0 b6 88 bb 9a b8 74 62 be 37 43 a5 b5 36
       -5.247536e-06 -7.378223e-05 2.269561e-05 5.4134593e-06
000010 13 05 b5 b7 1b ec 87 b7 c3 16 3d 38 a0 a5 3c b8
       -2.1579244e-05 -1.62032e-05 4.508231e-05 -4.4976943e-05
000020 f6 92 f1 37 c3 e7 87 37 72 bd bd 37 6d 9c 05 b7
       2.8797873e-05 1.6201177e-05 2.2618773e-05 -7.9638385e-06
000030 7a 34 4f b7 17 d8 f8 b6 97 98 cd 38 12 0d 0c 38
       -1.235038e-05 -7.416132e-06 9.803584e-05 3.3390774e-05
000040 93 e3 7a 37 c8 ca b3 36 3f 12 72 37 e6 1f 02 b8
       1.4954147e-05 5.3582226e-06 1.4428572e-05 -3.1024123e-05
000050 d5 cc 5f 37 51 d0 94 b7
       1.3339527e-05 -1.773998e-05

running_var f4 [22]
000000 73 4e 23 3c 13 16 dc 3e 15 39 3d 3d ca a0 d0 3c
       0.009967434 0.4298559 0.046197016 0.025467295
000010 21 27 b6 3c fc 8d 02 3d 8a b3 8d 3c e4 f6 70 3d
       0.022235455 0.031873688 0.017297525 0.058829203
000020 bf 13 76 3d 6e f9 36 3c 33 b2 c9 3c 62 35 21 3d
       0.060077425 0.011167867 0.024621105 0.03935755
000030 db 12 d1 3c 1c 81 9c 3c 99 09 00 3d 03 a0 5e 3d
       0.025521686 0.019104533 0.031259153 0.054351818
000040 b2 ff 6b 3d e4 76 47 3c b9 19 03 3d 61 56 37 3d
       0.057616897 0.012174342 0.032006953 0.04476011
000050 ab af 16 3d 92 34 54 3d
       0.036788624 0.051807947

weight f4 [10, 1, 22, 12]
000000 81 ff 04 be 1f 0a f5 bd 30 4d cc bd dd e1 05 bd
       -0.12988092 -0.11964821 -0.0997566 -0.032686103
000010 a4 2b af bc 3a 4c e7 3c 0f e4 ad 3d 0c da 0f 3d
       -0.021383114 0.02823459 0.08490764 0.035120055
000020 5a 38 05 bd 21 f1 80 bd 93 35 cd bc 1e 9f 2d be
       -0.032524444 -0.06295992 -0.02504996 -0.1695523
000030 08 0d af 3c ea 93 0c 3d ae 04 03 bd a1 0d 05 3c
       0.021368518 0.03432075 -0.031986885 0.008120925
000040 b1 5a 1e 3d ef a3 10 3d 3a d4 94 3a b9 01 dc 3b
       0.03866071 0.03531259 0.0011354752 0.0067140725
000050 2e 91 c7 3c 77 78 4c bc 3e 65 48 bd 9c 87 21 bd
       0.02436122 -0.012479893 -0.048924677 -0.039435968
000060 f4 44 75 bd db f5 9c 3d 1a 3b bf 3a 91 2b 62 3d
       -0.059880212 0.07664081 0.0014589757 0.05521733
000070 52 53 d5 3c 3a cb 0b bc 08 b8 32 3c c8 cf 08 3c
       0.026040707 -0.00853234 0.010908134 0.00835032
000080 e2 6b 97 bd 61 2c 0b 3c aa 16 77 bd da f8 5c 3c
       -0.07393624 0.0084944675 -0.06032435 0.013487065
000090 d4 0f 8d bd 69 e9 26 3d 19 ec 2f 39 5a 12 12 3d
       -0.068877846 0.04074994 0.00016777254 0.035662033
0000a0 18 98 be 3d 75 80 08 3e 78 e6 af 3d 40 8b f8 3c
       0.09306353 0.13330252 0.0858888 0.030339837
0000b0 5d d7 ce bc 74 c3 e8 bc 63 aa 3c bd 22 df b6 bd
       -0.025249178 -0.028413512 -0.04606093 -0.08929278
0000c0 2b 87 2f bd 7e 78 6d bd ba d7 25 3d 3e 23 a6 bb
       -0.042853516 -0.05797624 0.040488936 -0.005070119
0000d0 4a 68 66 3c af 6f 3b bd 85 08 06 3c 1e 7a 04 bd
       0.01406295 -0.045760807 0.008180742 -0.032343023
0000e0 40 4c 02 bc 06 be a7 bd 33 94 dd 3c 31 28 30 3d
       -0.00795275 -0.08190541 0.027048206 0.04300708
0000f0 0a 02 1d 3d 5f 8e 73 3d 42 91 60 bc 6a f5 51 bc
       0.038332023 0.059461948 -0.013706507 -0.012814859
000100 7e 42 ea bb 3a a4 8b bb be 8b df bc 6e 7a 48 bb
       -0.00714904 -0.0042615207 -0.027288314 -0.0030590552
000110 45 41 20 3d 02 b0 0c 3d 1f ab a8 3b 05 d9 87 3b
       0.039124746 0.03434754 0.0051473523 0.004145744
000120 7c a6 47 be 14 d3 27 bd 6f 7e 2a bc 0e 06 9a 3a
       -0.19497102 -0.040972784 -0.010406121 0.0011751072
000130 82 36 82 3d 4f 53 f3 3d 47 e6 53 3d ce ba 6f 3c
       0.06358053 0.11881124 0.05173328 0.01463194
000140 ce de 8b bd 59 98 6b bd 89 6c b5 bd f7 bb b2 bc
       -0.06829606 -0.057518337 -0.08858592 -0.021818144
000150 e4 db 6c be b3 9c e1 bd c5 cc 03 3c 4c 88 8b 3d
       -0.23130757 -0.11016216 0.008044426 0.06813106
000160 21 f6 ee 3c 4c a0 89 3d 9b a4 e7 3c a1 a7 0c 3d
       0.029170098 0.06720027 0.028276732 0.03433955
000170 dd 02 77 bd 89 32 99 bd 8e 8c 08 be 47 12 95 3b
       -0.060305465 -0.07480342 -0.13334867 0.004549298
000180 a5 2c a3 3b 74 7d 1b bd 27 c9 33 3d 6c 5c ab bc
       0.0049796873 -0.03796144 0.043893006 -0.020918094
000190 f2 d5 7b 3d 17 65 84 3d e8 17 ed bc 84 c8 01 bc
       0.06148333 0.06464594 -0.028942063 -0.007921342
0001a0 3c c3 82 bb f8 95 17 bd a0 aa 08 3d 52 bc 8f bd
       -0.003990559 -0.037008256 0.033365846 -0.07018341
0001b0 41 d1 89 bd f5 24 15 bc c0 d6 23 3d e6 60 28 bd
       -0.06729365 -0.0091030495 0.039999723 -0.041108035
0001c0 0e 2d 11 3d b8 b3 c0 3c 0c d9 43 3c 63 a9 68 3d
       0.035443358 0.023523197 0.0119536035 0.056802165
0001d0 de c7 15 bd e0 16 91 3b f5 d5 09 3d 05 53 94 bd
       -0.03656756 0.0044277757 0.03365131 -0.07242397
0001e0 7d db 31 bd 6b 32 0c bd 16 34 54 bd 81 54 35 3c
       -0.04342221 -0.03422777 -0.051807486 0.011067511
0001f0 ca 11 6b 3b 01 0f b9 3c 3b 35 51 bd 61 86 da bc
       0.0035868757 0.022590162 -0.051076155 -0.026675405
000200 fe 49 2e bc b6 e4 35 bd 6a ce 4f bd a7 88 ab bd
       -0.010637758 -0.04440757 -0.05073396 -0.08375674
000210 60 d8 6b 3d 68 47 72 3d ac 8e a3 3d 38 29 b6 bc
       0.0575794 0.05915013 0.07986197 -0.022236452
000220 db 3f 95 3c bb 85 46 bb 01 67 80 bc 63 c1 82 bc
       0.018218925 -0.0030292112 -0.015674116 -0.015961355
000230 92 fb 34 bd f6 6b 1f bc c0 36 97 3c 50 a2 13 3d
       -0.04418523 -0.00973033 0.018458724 0.036043465
000240 f5 4f 2d 3c 87 fd 63 3c 06 82 b9 bc b3 79 83 bc
       0.010578145 0.013915426 -0.022645008 -0.016049242
000250 d7 81 62 bc 40 f8 5f bd 0b 63 0b bc 7c 8d b6 3c
       -0.013824902 -0.05468011 -0.0085075 0.022284262
000260 11 6d 32 3d 33 28 10 bb 78 c7 68 3d e8 78 3e 3c
       0.043561045 -0.0021996617 0.056830853 0.011625506
000270 9a 0b 08 3e ef 75 c1 3d b9 31 e9 3c d4 69 12 3d
       0.13285676 0.09446322 0.028466092 0.035745457
000280 fe e2 68 3d 00 b2 d5 3b 4b 46 2e bd 86 8a b1 3c
       0.0568571 0.0065214634 -0.042547505 0.021672498
000290 41 60 5a 3d ec 96 a7 3d 7c 5f 64 3d 2e 08 ff bc
       0.05331445 0.08183083 0.055755123 -0.03113183
0002a0 fb 11 dd bc 06 34 ba bc c6 df 3f 3b 18 4b be bc
       -0.026986113 -0.022729885 0.0029277666 -0.023229167
0002b0 9b f1 ac 3a 41 1b 74 bd 44 c0 3f bc 86 98 06 bd
       0.0013194563 -0.059596304 -0.011703555 -0.0328603
0002c0 ea c6 c2 bc 2d 42 20 3c e7 e3 dd 3a 70 24 22 3d
       -0.02377649 0.009781403 0.0016928882 0.03958553
0002d0 b8 11 c6 bd b8 70 6d bb 23 8b db bb d7 23 14 bc
       -0.09671348 -0.0036230516 -0.006699936 -0.009041748
0002e0 3f e7 fc 3c 2d 79 62 3d a2 92 90 3d 64 29 91 3d
       0.030871985 0.055291343 0.07059218 0.07087973
0002f0 2b 9e 39 3d 14 21 8c bd 3e 23 38 bc bf f2 8f bd
       0.045316856 -0.06842247 -0.011238871 -0.07028722
000300 3f a3 56 3b 42 22 14 3b e8 45 b3 bd 1f 7d 92 bc
       0.003275111 0.0022603427 -0.08753568 -0.017881928
000310 d9 2a 37 bc 64 52 92 3d 26 9b 0c 3d 61 82 cb 3c
       -0.011179649 0.07144621 0.03432765 0.024842443
000320 aa 14 9b 3d 75 22 f0 bc a9 03 30 ba fd da 77 bd
       0.07572301 -0.029313305 -0.00067144126 -0.060511578
000330 a8 9e 6f bd 23 51 e2 3c 27 41 9d bc af 4f 83 3d
       -0.058500916 0.02762658 -0.019196106 0.06411683
000340 11 3d bf 3c 17 5f 8a bc 1c 8d 14 bd bd 99 2d bd
       0.023344548 -0.016891045 -0.036267385 -0.042382944
000350 c5 f6 c4 bc 4c 10 01 bd 85 d4 9d bc 60 a6 9b bc
       -0.02404345 -0.031509683 -0.019266376 -0.019000232
000360 99 01 75 bd 0e e9 a6 bd 98 e4 7c bd fe e8 78 3c
       -0.059815977 -0.081499204 -0.06174144 0.015192268
000370 11 0e 2f bd d7 0e d3 3b ac 59 46 3c 47 e2 59 3d
       -0.042738024 0.006440978 0.01210634 0.05319431
000380 7f e2 9e 3c f0 00 a3 bd 35 b7 0e bc 30 8b 6d bd
       0.019395111 -0.07959163 -0.008710672 -0.057994068
000390 79 1a 61 bb 99 63 3e bd 79 b4 ed bc 04 d8 20 bd
       -0.0034348054 -0.046481702 -0.02901672 -0.03926851
0003a0 bd ca c3 bc 2e e2 ff bc d9 38 b6 bc 91 27 c6 bc
       -0.023900384 -0.03123578 -0.022243904 -0.024188789
0003b0 db 58 9c bc 45 7b bd 3b 09 5b 0b bc f2 d2 40 3c
       -0.019085338 0.005782517 -0.008505591 0.011769043
0003c0 4e 38 1e 3d dd 2f 45 bb 58 16 b1 3c 86 8c 42 bc
       0.038627915 -0.0030088343 0.0216171 -0.011874324
0003d0 fa 1d 33 bc 83 30 72 3d 2e be 28 bd 1f ea 15 bd
       -0.01093244 0.059128296 -0.041196994 -0.03660023
0003e0 56 49 2e 3d 39 a9 e4 3c 55 97 87 ba 33 49 f7 bc
       0.042550407 0.027912723 -0.0010344783 -0.030186271
0003f0 e0 c6 26 bd ec 1b d9 bc f1 81 ad 3c eb 83 b3 bb
       -0.040717006 -0.026502572 0.021180125 -0.0054783723

bias f4 [10]
000000 61 fe 30 35 55 fe 01 b7 7b ff ad 36 d4 b2 da b5
       6.593528e-07 -7.7482155e-06 5.1855436e-06 -1.6294312e-06
000010 79 fb 89 36 dc 77 95 36 d5 02 30 37 cb cf 31 b6
       4.1121934e-06 4.4544995e-06 1.0491077e-05 -2.6496007e-06
000020 02 4f 0c 37 3c 24 cc 34
       8.363046e-06 3.8024325e-07

weight f4 [10]
000000 ed 74 b1 3f 22 f9 b7 3f 9e db ae 3f 3d 51 a2 3f
       1.3863808 1.4372904 1.3660772 1.2681042
000010 02 96 9f 3f 2a c8 ab 3f 88 5b c1 3f 0e 64 aa 3f
       1.2467654 1.342046 1.5106058 1.3311784
000020 32 a7 ab 3f 4f 49 ac 3f
       1.3410399 1.3459872

bias f4 [10]
000000 ae ab 8d 3b c1 47 b1 bc 86 f0 06 bc 18 3a 27 3c
       0.0043234443 -0.02164066 -0.008236056 0.010206722
000010 5c 4b a9 3b 6b cf 17 bc c6 a0 c7 3c 75 dc ac 3b
       0.0051664542 -0.009265761 0.024368655 0.005275304
000020 e6 97 17 bc c8 66 7b bc
       -0.009252524 -0.015344329

running_mean f4 [10]
000000 b7 53 3a 3e 95 3c 00 3e 02 cf 0b 3e 59 d6 4f be
       0.18195997 0.1252311 0.13653186 -0.20296611
000010 d5 6a 9f bd 2a bd 76 bd d9 4c a2 3d 50 a8 1c be
       -0.077840485 -0.060238995 0.07924814 -0.15298581
000020 a0 95 d8 3d 52 c5 8e bb
       0.10575414 -0.0043570185

running_var f4 [10]
000000 5f e5 9a 3f ea 4b 0d 40 2f c7 82 3f f3 35 89 3f
       1.2101249 2.2077584 1.0217036 1.0719589
000010 1f 46 23 3f 76 65 ba 3f be 9b f6 3f d2 21 73 3f
       0.6377887 1.4562213 1.9266279 0.9497348
000020 67 1f d3 3f 30 23 d4 3f
       1.6493958 1.6573238

weight f4 [4, 320]
000000 69 a6 43 3e d6 cc d1 3c 5f 0d 24 3d ca ca 85 3d
       0.19106449 0.025610369 0.040051814 0.065328196
000010 e1 f0 ad 3d e4 e6 fe 3c 01 13 d6 3c 9a 62 be 3d
       0.0849321 0.031115957 0.026132109 0.092961505
000020 6a f3 1f bd d2 73 24 bd db 6e b3 bd f5 4d b5 bd
       -0.039050497 -0.040149517 -0.087613784 -0.0885276
000030 70 35 5b bd b1 79 15 3b 70 a3 ad bd 48 f3 b8 bd
       -0.05351776 0.002280813 -0.08478439 -0.09030777
000040 f6 d3 01 3d 81 39 e8 bc 07 7c d7 bd 63 69 a8 bd
       0.031696282 -0.028347732 -0.10521703 -0.08223226
000050 1b f4 8b bd 63 bd 71 3c 3a ff 9f 3d 5e d8 41 3d
       -0.06833669 0.014754626 0.078123525 0.047325484
000060 b6 0d 01 bd 9d 7d 1a 3d 17 b6 8f 3b d6 85 02 bd
       -0.031507216 0.03771745 0.0043857205 -0.031865917
000070 2d 38 c7 3b a7 ed 5c bd 3a 5b c0 3c e7 bf 99 3d
       0.0060796947 -0.05393758 0.023481 0.075073056
000080 3a be fb be 32 2e fb be 2b 1c ec be f2 40 d6 be
       -0.4916857 -0.49058682 -0.4611524 -0.41846424
000090 2d ef c3 be a5 86 74 be 9b 56 76 be ce ec 9b be
       -0.38268414 -0.23879488 -0.24056475 -0.30454105
0000a0 61 f4 81 be 05 38 ae be d2 50 8d be 3f ea 8c be
       -0.2538176 -0.34027115 -0.27600724 -0.27522466
0000b0 68 97 38 be 28 dc 4a be 0f 03 11 be d5 e6 3a be
       -0.18026507 -0.19810545 -0.14161323 -0.18252118
0000c0 ca e2 19 be 14 20 a6 bd f5 f8 b5 bd 0a 6b f7 bc
       -0.1502792 -0.08111587 -0.088853754 -0.030202407
0000d0 b7 e1 a0 bc 6f 75 ec 3d 59 67 5c 3d ce 1e 1a bd
       -0.01963888 0.11545836 0.053809498 -0.037627034
0000e0 a7 13 af 3a 63 8e e0 3c 21 41 cd 3c 86 70 9d bc
       0.0013357297 0.027411645 0.02505547 -0.019218694
0000f0 bc b2 6c 3b df 9c 86 3b 76 ad 51 bd b4 ec 5e 3c
       0.0036117276 0.004108056 -0.051190816 0.013606239
000100 5a 41 36 3e 63 c2 17 3d 49 db 83 bc 33 fc 83 bd
       0.17798367 0.037050616 -0.016095774 -0.064445876
000110 87 56 5d bc 8d 01 e1 bd ac ad 85 3d 97 ef 36 bd
       -0.013509399 -0.10986624 0.06527266 -0.044662084
000120 8e 8b 9c 3d 92 6a b4 3d 02 ea 23 3d cb 0d ad bd
       0.076438054 0.08809389 0.04001809 -0.084498964
000130 0e 07 ed bc 4c 8a d5 bc b9 72 b3 3b a3 6a 22 3d
       -0.028934028 -0.026066922 0.0054763225 0.039652478
000140 f9 e1 b0 3c a5 f8 24 bc e5 23 81 bd 81 bc cb bd
       0.021592127 -0.010069047 -0.063056745 -0.09948064
000150 32 4f 8a bd 46 dc 46 3d d2 14 77 3d 33 e1 96 3d
       -0.067533866 0.048549913 0.06032259 0.07367172
000160 73 bb 24 3d 7a 1c f3 3d 81 06 31 3c 1a 78 2b bd
       0.040217828 0.11870666 0.010804773 -0.041862585
000170 5e 0e 51 3c ed 03 86 bd 39 d1 d3 3c 1a 8e 40 3d
       0.012759773 -0.065437175 0.025856601 0.04701052
000180 71 15 fa bd cf fa 41 bd 89 ca cb 3b d5 cf 59 3c
       -0.12211121 -0.04735833 0.0062192124 0.01329418
000190 2a 24 97 3d a9 92 a5 3d b3 1d e8 bc 28 f5 de bc
       0.073799446 0.08084614 -0.028334474 -0.027216509
0001a0 53 88 71 ba 04 d5 5b bd c8 4e 8f bd c6 62 46 bc
       -0.00092137343 -0.053669944 -0.06997448 -0.01210851
0001b0 73 c0 33 3d 29 85 f2 ba 67 65 b0 bd f7 f2 13 bd
       0.043884706 -0.001850282 -0.08613091 -0.03612038
0001c0 17 1a ba bc 8b 87 de 3c fd 06 38 3c d5 8e 9e bc
       -0.022717519 0.027164241 0.011232135 -0.019355217
0001d0 05 f1 12 3c 3a e9 f1 bc 4e 95 55 3d a5 b7 1c 3d
       0.008968596 -0.029530156 0.05214434 0.038261075
0001e0 9a 8d 8b bc 64 83 ae 3d 11 fa 17 3d 46 bd c2 3c
       -0.017035294 0.085211545 0.037103716 0.023771893
0001f0 e5 38 6c bd c3 3d b5 3b 75 59 d4 3d 0e 98 12 3e
       -0.057671446 0.005531044 0.10368625 0.14315817
000200 e7 0b 16 3e 99 4c db 3d 50 48 8c 3d c9 fa 80 3d
       0.14652978 0.10707969 0.0684973 0.062978335
000210 cb 61 ab 3d 51 6f e1 bb 80 be b6 3d 6e 27 18 3b
       0.08368262 -0.006879725 0.08923054 0.0023216861
000220 2c 48 a5 3d de 81 16 3e e6 32 23 3e 3d 67 34 3e
       0.08070406 0.14697978 0.15937385 0.17617507
000230 b8 6a 1f 3e 5b c7 da 3d 96 66 54 bd 25 e6 02 3d
       0.15568054 0.10682555 -0.051855646 0.031957764
000240 b4 0e 75 3d df d9 44 3d 61 72 a5 3d 7b d1 fd 3d
       0.059828475 0.04805934 0.08078457 0.12393471
000250 f8 ff 11 3e 35 4a 33 3d 8e e0 c7 3d 41 94 c9 3c
       0.142578 0.04377194 0.09759627 0.024606826
000260 63 8a 2a 3d 69 ca 8f 3c 6e 88 30 3d fb 0c 17 3a
       0.041635882 0.017552571 0.04309886 0.0005762127
000270 a0 1e 49 3d 2d 03 b8 3d f1 8a 49 3e bf 14 5e 3e
       0.049101472 0.08984981 0.19681908 0.21687602
000280 8e 59 76 be eb e4 8f be 8d 72 90 be a6 f4 94 be
       -0.240576 -0.28104338 -0.28212395 -0.29092902
000290 d9 4a 75 be ba d4 00 be 32 54 53 be fc 22 15 be
       -0.23954333 -0.12581149 -0.20637587 -0.14564127
0002a0 5e 5a 20 be 3c 72 4c be 40 b2 87 be 08 6e 75 be
       -0.15659472 -0.19965452 -0.2650318 -0.23967755
0002b0 a9 9c 86 be dc 07 86 be c8 45 41 be 38 fd b2 3c
       -0.26291397 -0.2617787 -0.18874276 0.02184926
0002c0 4a 39 55 3d 1f 53 8a bc 24 f9 16 bd 75 ec 40 bc
       0.05205659 -0.016885338 -0.036858693 -0.011775126
0002d0 12 70 68 3d a8 dc 8a 3d cc c1 3a 3d 92 e6 fa bc
       0.056747504 0.06780368 0.045594975 -0.030627523
0002e0 97 66 d5 3a 3b 90 20 3d f8 2a 86 3c ab c7 b5 3c
       0.0016281185 0.03920005 0.016377911 0.022189936
0002f0 11 3c 66 3c 86 a3 3a 3d 65 1d f1 3b f2 7f 00 3e
       0.014052407 0.045566104 0.0073582404 0.12548807
000300 6f 83 2a 3e b7 1c 53 3e 1f bc 21 3e ca 14 36 3e
       0.166517 0.20616423 0.15794419 0.17781368
000310 55 2b 6f 3e 33 d3 39 3e c0 0c 13 3e a2 23 16 3e
       0.23356374 0.18146972 0.14360332 0.1466203
000320 98 56 49 3e 2e e6 20 3e 42 66 2c 3e 2a 45 f3 3d
       0.19661939 0.15712807 0.16835883 0.118784264
000330 74 3f 38 bc 75 79 8e 3c fc 40 39 3d 1e 94 41 bd
       -0.011245597 0.0173919 0.04522799 -0.047260396
000340 d3 6e d7 3c 0f 33 8a 3d 3d 28 5b 3c 15 af 0c 3d
       0.026297962 0.0674802 0.013376293 0.03434666
000350 d7 a5 8c 3d 56 31 b5 3d b6 81 fa 3c da 3f c7 bd
       0.06867569 0.08847301 0.03057943 -0.097289756
000360 6f 02 b3 bc 03 41 a9 bc 2d 26 9a bd c2 1a 14 be
       -0.021851746 -0.020660883 -0.07526813 -0.14463332
000370 a6 75 ca bc 18 d8 f9 3c ae a6 b8 3d d5 ab 8b 3d
       -0.024714302 0.03049855 0.090161666 0.06819884
000380 1f e1 b6 be 8e 3a ae be b2 ea 83 be a5 5d 7b be
       -0.3571863 -0.3402905 -0.25764996 -0.24547441
000390 a8 27 22 be 4a c4 2e be e8 12 47 be 7a f4 6a be
       -0.1583544 -0.17067066 -0.19440806 -0.22944823
0003a0 92 04 90 be a7 99 8f be 15 12 87 be 31 45 2f be
       -0.28128487 -0.28046915 -0.26380983 -0.17116238
0003b0 92 9a b7 bd bd e3 65 bd 34 6b a7 bc e5 b5 0d bd
       -0.08965029 -0.05612539 -0.02043686 -0.034597296
0003c0 8f c9 a1 bd c3 ab d3 bd 55 24 8b bd b7 e9 99 bd
       -0.078997724 -0.10335495 -0.06794039 -0.07515281
0003d0 f9 db 72 bd 04 b4 ab 3c cd 17 b4 bd 55 fc 2f 3c
       -0.059291814 0.020959862 -0.08793602 0.010741313
0003e0 c7 53 0d bd c2 09 83 bc 84 a2 e8 bc df f0 ae 3c
       -0.034503724 -0.015995864 -0.028397806 0.02135509
0003f0 6c d0 68 3d 38 dd 0b bd b6 ab c3 3d f2 94 3c 3e
       0.05683939 -0.034146518 0.09554236 0.18416193

bias f4 [4]
000000 8f 95 99 3e f7 4c 12 bd 10 2d 0f bc a6 a7 3e be
       0.29996917 -0.03571793 -0.008738771 -0.1861864
