LAB2/best/mode_LOSO.pth (torch, 39406 bytes, 14 tensors)

weight f4 [22, 1, 22, 1]
0	0x3d1363b4	0.035983756
1	0xbd4b3abb	-0.049616557
2	0x3dfaa913	0.122392796
3	0x3cde10fd	0.02710771
4	0xbdf2ef64	-0.118620664
5	0xbcc012e1	-0.023446502
6	0x3d17a032	0.03701801
7	0xbe6e2ed8	-0.23260057
8	0x3e6c905f	0.23101948
9	0xbe0a0487	-0.1347829
10	0xbe552dee	-0.20818302
11	0x3e6e9d5b	0.23302214
12	0xbdede552	-0.11616005
13	0x3df6aaf5	0.12044326
14	0x3dcdcb19	0.100485034
15	0x3ce16a5d	0.027516538
16	0x3e9e3799	0.30901793
17	0x3ca9e464	0.020738788
18	0xbe6854a8	-0.22688544
19	0xbdfb3df3	-0.12267675
20	0xbe0b5e5c	-0.13610214
21	0x3e316ee3	0.17327456
22	0xbd0ab436	-0.03386327
23	0xbd9c4d99	-0.07631988
24	0x3e3a1648	0.18172562
25	0xbe513e27	-0.20433865
26	0x3df0d447	0.11759239
27	0xbd09d3e9	-0.03364936
28	0xbca714b0	-0.020395607
29	0x3e2dcf75	0.1697367
30	0xbd06af5d	-0.032882083
31	0x3ea8a05b	0.32934842
32	0xbe914977	-0.28376362
33	0xbd583f5e	-0.052794807
34	0x3c280ac3	0.010256472
35	0xbe00c57f	-0.12575339
36	0xbe3a4bb3	-0.1819294
37	0xbe81f143	-0.2537938
38	0x3e76b3b4	0.24091989
39	0x3dd19d49	0.10235078
40	0x3ddca0ea	0.107728794
41	0xbd8f9bd2	-0.07012142
42	0x38c8c97b	9.574272e-05
43	0xbb8f0fd5	-0.004365901
44	0x3e7ef871	0.2489946
45	0x3c02c070	0.007980451
46	0xbdd89895	-0.10575978
47	0xbe038d96	-0.1284698
48	0x3c548e2e	0.012973351
49	0x3d6497d2	0.05580885
50	0x3dfe2489	0.12409312
51	0xbc8e023c	-0.01733505
52	0xbea1315c	-0.3148297
53	0xbe18619a	-0.14880982
54	0x3d872b66	0.066000745
55	0x3e421f25	0.18957193
56	0x3905c1b0	0.00012756023
57	0x3dcd5a50	0.10026991
58	0xbdc3a74a	-0.09553392
59	0x3cb5a732	0.022174452
60	0x3e62bccd	0.22142334
61	0x3e04ecca	0.12980953
62	0x3ea30db3	0.3184639
63	0xbdd7ca7b	-0.10536667
64	0xbe8c7e81	-0.27440265
65	0xbe12d843	-0.1434031
66	0xbd4af257	-0.04954752
67	0xbdb1e23d	-0.0868573
68	0x3dbc04ce	0.09180604
69	0x3e347ecb	0.17626493
70	0xbe39363f	-0.180871
71	0x3e1a614f	0.15076183
72	0xbd571c3a	-0.052517153
73	0xbd60fff6	-0.054931603
74	0x3e167c04	0.14695746
75	0xbb8e3e0e	-0.0043408936
76	0xbcb43a0a	-0.022000331
77	0xbe181d47	-0.14854918
78	0xbde12fc7	-0.10995441
79	0x3d86b02f	0.06576573
80	0xbe8e7d55	-0.27829996
81	0xbe595bd1	-0.21226431
82	0x3e332f7a	0.1749858
83	0x3e842eae	0.25816864
84	0x3eaa9ec2	0.33324248
85	0xbdc989cb	-0.09840735
86	0xbe513a59	-0.20432414
87	0x3cd404aa	0.02588113
88	0xbd231912	-0.03981883
89	0x3d493f2b	0.049132507
90	0xbd867597	-0.06565397
91	0x3e604758	0.21902215
92	0xbd7d6004	-0.061859146
93	0xbe5cf342	-0.2157717
94	0x3da2842b	0.07935365
95	0xbce618bf	-0.028087972
96	0xbed34648	-0.41264558
97	0x3e07d280	0.13263893
98	0x3e6405bd	0.22267814
99	0xbddff03e	-0.109344944
100	0x3e642d0f	0.22282813
101	0x3d7c76b7	0.061636653
102	0x3e4a46bf	0.1975355
103	0xbde967fa	-0.11396785
104	0x3e7b1984	0.24521452
105	0xbe0c3653	-0.13692598
106	0x3b539ab0	0.0032288246
107	0xbe6da8dc	-0.23208946
108	0xbde72af8	-0.112874925
109	0x3e153769	0.14571919
110	0xbe5ad1ed	-0.21369143
111	0x3e51673f	0.20449542
112	0x3e24bde3	0.16088061
113	0x3e3095f9	0.1724471
114	0x3e146a81	0.14493753
115	0xbe2fdfc3	-0.17175202
116	0xbe3799f2	-0.17929819
117	0x3e4feaed	0.20304461
118	0x3e1de2c2	0.15418532
119	0xbe715749	-0.23568453
120	0xbe257dce	-0.16161272
121	0x3e84abbd	0.25912276
122	0x3dc0e4b9	0.094186254
123	0xbe359cb9	-0.17735566
124	0xbdf679d0	-0.12034953
125	0xbe4ecc2c	-0.20195073
126	0xbd6c9c73	-0.05776639
127	0x39e084cf	0.0004282356
128	0x3e0a604b	0.13513295
129	0x3e568bd4	0.20951778
130	0xbe65677f	-0.22402762
131	0x3dd51292	0.10403933
132	0x3e08f80c	0.13375872
133	0x3e396537	0.18105017
134	0xbe4ead2e	-0.2018325
135	0xbd7d3480	-0.061817646
136	0x3da54b07	0.08070951
137	0xbdabd029	-0.08389313
138	0x3d20d9b2	0.03927011
139	0xbe47e76e	-0.19521877
140	0x3e51df84	0.2049542
141	0x3e7ced26	0.2469984
142	0xbe2ae284	-0.16687971
143	0xbe814593	-0.25248393
144	0x3e317369	0.17329182
145	0x3ca14998	0.019688413
146	0xbed60c2f	-0.4180617
147	0x3e16a5dd	0.1471171
148	0x3e8a4f09	0.27013424
149	0xbdd5e317	-0.104437046
150	0x3e1c628f	0.15271972
151	0x3d5a1a3f	0.053247686
152	0xbdf699d0	-0.12041056
153	0x3cbf8f99	0.023383902
154	0x3e7ece3b	0.24883358
155	0xbe7c8681	-0.24660684
156	0xbc4d0973	-0.01251446
157	0x3df427d7	0.11921661
158	0xbd18ebf6	-0.037334405
159	0xbe196c93	-0.14982824
160	0xbe2493f7	-0.16072069
161	0x3e5793d9	0.21052493
162	0xbdfb132d	-0.12259517
163	0x3d06a2cb	0.032870095
164	0xbe259a06	-0.16172037
165	0xbd81305f	-0.06308054
166	0xbd164c64	-0.036693946
167	0x3e788595	0.24269708
168	0x3e911748	0.28338075
169	0xbe621804	-0.22079474
170	0x3daf0011	0.085449345
171	0x3dbe07c0	0.09278822
172	0x3d302765	0.04300632
173	0x3db42437	0.0879597
174	0xbcccdaa0	-0.025006592
175	0xbe8d139d	-0.27554026
176	0x3e0cd2c9	0.13752283
177	0xbd11088b	-0.035408538
178	0xbdb5aadb	-0.08870479
179	0x3d3ef9c5	0.046624918
180	0xbe28959e	-0.16463324
181	0xbcb31a9a	-0.02186327
182	0x3d9db86e	0.07701193
183	0x3dab18f0	0.08354366
184	0xbe779f36	-0.24181828
185	0x3e636be2	0.22209123
186	0xbe0e4933	-0.13895111
187	0xbccfe16d	-0.025376046
188	0x3dc2e73b	0.0951676
189	0xbe708c14	-0.23490936
190	0x3e4b7003	0.19866948
191	0x3e976f4a	0.29577094
192	0xbe98080d	-0.29693642
193	0x3e2a99da	0.16660252
194	0xbdeac456	-0.11463229
195	0x3c92c540	0.017916322
196	0xbe1a269b	-0.1505379
197	0x3dffa99a	0.12483521
198	0x3e790342	0.24317649
199	0xbb517934	-0.0031963112
200	0xbe377224	-0.17914635
201	0xbe7ba5fd	-0.24575038
202	0xbd0a19d3	-0.033716034
203	0xbe694998	-0.2278198
204	0xbe1750f3	-0.14776973
205	0x3eaf84fb	0.34281144
206	0x3dc23772	0.094832316
207	0xbdd9f0d5	-0.10641638
208	0x3ec64a1c	0.38728416
209	0x3da76259	0.08173055
210	0xbd71cb3c	-0.05903171
211	0xbdce0271	-0.100590594
212	0xbd0c4e59	-0.034254406
213	0xbc23c946	-0.009996718
214	0xbd451b16	-0.048121534
215	0x3e2fd360	0.17170477
216	0x3dc444f9	0.09583468
217	0xbd736072	-0.05941815
218	0xbe84a1a7	-0.2590458
219	0x3ddc8df5	0.10769264
220	0x3db177c7	0.08665424
221	0xbe840a9a	-0.25789338
222	0x3e27f4b7	0.16401945
223	0xbb106d10	-0.0022037663
224	0x3e786a12	0.24259213
225	0x3cec05ce	0.028811362
226	0xbc9808a4	-0.018558808
227	0xbe5cf268	-0.21576846
228	0x3e960f8a	0.2930873
229	0x3e71641c	0.23573345
230	0x3e213e93	0.15746526
231	0xbe49215f	-0.19641636
232	0x3de6a0be	0.11261128
233	0xbe887b1e	-0.2665643
234	0x3e263db2	0.16234472
235	0xbe335a0e	-0.17514822
236	0xbeaa6b98	-0.33285213
237	0xbe2fdbd1	-0.17173697
238	0x3e2c6617	0.16835819
239	0x3be42b7e	0.0069631925
240	0xbc2759c4	-0.010214273
241	0x3d8dd399	0.06925125
242	0xbd129682	-0.035788067
243	0x3d888ec3	0.06667855
244	0xbe9ccc22	-0.3062449
245	0x3de34bf0	0.11098468
246	0x3e8f9121	0.28040412
247	0x3e2be4b7	0.16786467
248	0x3d6b6a15	0.057474215
249	0x3d2db7de	0.042411678
250	0xbe8bbfe3	-0.27294835
251	0x3e0602a6	0.13086948
252	0x3d95f7eb	0.07322677
253	0xbe9bd471	-0.30435517
254	0xbe0f1c12	-0.13975552
255	0x3d141a6f	0.03615802

bias f4 [22]
0	0xb9d94268	-0.00041438942
1	0xb8d066df	-9.937374e-05
2	0xb8d768af	-0.00010271498
3	0x39a86bdb	0.00032123816
4	0x3a149466	0.0005667865
5	0xb69246d9	-4.359387e-06
6	0xb932a683	-0.00017037433
7	0xb93e8382	-0.00018168802
8	0xb9f6a9d6	-0.00047047314
9	0xb953d880	-0.0002020318
10	0x3957a8ec	0.00020566926
11	0xba028ffb	-0.0004980561
12	0xba57a268	-0.00082257995
13	0xb86fb48b	-5.7150184e-05
14	0xb964520d	-0.0002177434
15	0xba10839a	-0.0005512774
16	0xbaa1a5c5	-0.0012332728
17	0x39a36cc5	0.00031170822
18	0xba3d8fa0	-0.00072311796
19	0xb8b0fc7a	-8.4393614e-05
20	0xba0fda31	-0.000548753
21	0x394aa4bd	0.00019325591

weight f4 [22]
0	0x3f72cb4c	0.94841456
1	0x3f652bd3	0.89519995
2	0x3f4ddaa8	0.8041177
3	0x3f3bb8bf	0.73328775
4	0x3f39b1ea	0.725371
5	0x3f6648f4	0.8995507
6	0x3f802ae6	1.0013092
7	0x3f5673cf	0.8377046
8	0x3f5c4b88	0.8605275
9	0x3f571ad3	0.84025306
10	0x3f61fff5	0.88281184
11	0x3f521f8c	0.82079387
12	0x3f7b6132	0.98195183
13	0x3f60e539	0.87849766
14	0x3f533a7c	0.82511115
15	0x3f50a85b	0.8150689
16	0x3f745b36	0.95451677
17	0x3f392d1f	0.72334474
18	0x3f3e171d	0.7425402
19	0x3f56a044	0.83838296
20	0x3f661814	0.8988049
21	0x3f6b892c	0.9200618

bias f4 [22]
0	0x3da2c7ea	0.07948287
1	0x3eae30c1	0.3402157
2	0x3f2a3435	0.6648591
3	0xbe87eb86	-0.26546878
4	0xbec77b4d	-0.3896126
5	0x3e84d177	0.2594106
6	0xbe2b3030	-0.16717601
7	0x3f0378a8	0.5135598
8	0xbe046e8f	-0.129328
9	0xbe82ba3b	-0.25532708
10	0xbd36900e	-0.044570975
11	0xbee20f50	-0.44152308
12	0xbb329522	-0.0027249535
13	0x3ec75fa0	0.38940144
14	0xbef6f5c5	-0.48234382
15	0x3e0d3728	0.13790572
16	0xbdbf64a6	-0.09345369
17	0xbee2cf5f	-0.44298837
18	0x3ea80fca	0.32824546
19	0xbd435a41	-0.047693495
20	0x3e025d2b	0.12730853
21	0xbf2e88da	-0.6817757

running_mean f4 [22]
0	0xb93586f2	-0.00017311776
1	0x39455e8d	0.00018822607
2	0x37f896bb	2.9634093e-05
3	0x39a1ab4c	0.0003083594
4	0x39216371	0.00015391201
5	0xb948c87c	-0.00019148173
6	0x38c3a34c	9.328741e-05
7	0x37d1bc71	2.5002491e-05
8	0xb910c379	-0.0001380573
9	0xb8a2d8f4	-7.7651726e-05
10	0xb802bda9	-3.117105e-05
11	0xb8f7f1e4	-0.000118229334
12	0x397b864a	0.00023987252
13	0xb999246b	-0.00029209568
14	0x38dc467d	0.00010503547
15	0xb8fc3f34	-0.00012028069
16	0xb94f1494	-0.00019748724
17	0xb7a031c2	-1.9096657e-05
18	0xb8d3def2	-0.00010102791
19	0xb879d715	-5.9566537e-05
20	0x3982c307	0.0002494084
21	0xb8864909	-6.403222e-05

running_var f4 [22]
0	0x3c3afff9	0.011413568
1	0x3c8a96a8	0.016917542
2	0x3d988436	0.07447092
3	0x3c72f984	0.014829997
4	0x3c2368fd	0.009973762
5	0x3d11d12b	0.03559987
6	0x3cb686f3	0.022281146
7	0x3d2ad7b9	0.041709635
8	0x3c5790b9	0.013157063
9	0x3c6e2727	0.014535702
10	0x3debe5a4	0.1151841
11	0x3ccfb016	0.025352519
12	0x3c9164e9	0.017748313
13	0x3c1378d8	0.009000979
14	0x3c92d1fd	0.017922396
15	0x3c84d8f6	0.016216736
16	0x3cd5052e	0.026003446
17	0x3d8ff03e	0.070282444
18	0x3c4ea4ac	0.012612503
19	0x3d52b407	0.05144122
20	0x3ccc4a15	0.024937669
21	0x3e2848e0	0.1643405

weight f4 [18, 1, 22, 12]
0	0x3e355c12	0.17710903
1	0x3b925774	0.0044659916
2	0xbe2d9c44	-0.16954142
3	0xbe16b367	-0.14716874
4	0x3c123808	0.008924492
5	0x3e0dcbc4	0.13847262
6	0x3de37411	0.11106122
7	0x3dad1350	0.08450949
8	0x3c6c2d81	0.014415146
9	0xbd07f92c	-0.033196613
10	0x3cc38cb4	0.023870803
11	0x3d69ffe9	0.05712882
12	0xbc068879	-0.008211249
13	0x3c9bf46c	0.019037448
14	0x3da614eb	0.081094585
15	0x3e3e8da7	0.18608724
16	0x3e3d58e9	0.18490948
17	0x3d90f877	0.07078641
18	0x3d14b52e	0.0363056
19	0x3bd7dd58	0.0065876655
20	0xbc97861a	-0.018496562
21	0x3d765914	0.060143545
22	0xbd61da92	-0.055140086
23	0xbde202b4	-0.11035672
24	0xbd151254	-0.036394432
25	0x3d4f04ef	0.050541814
26	0x3d948f44	0.07253888
27	0x3da2cd16	0.07949273
28	0x3ccb7bc0	0.024839282
29	0x3d50780e	0.050895743
30	0x3de65a27	0.11247664
31	0x3db9477f	0.0904684
32	0xbc227c7f	-0.0099173775
33	0x3cb31d1f	0.021864472
34	0x3c7a62f0	0.015282378
35	0xbced5f42	-0.028976087
36	0x3da8e344	0.082464725
37	0xbda4ae6a	-0.08041079
38	0xbc7c11bb	-0.015385087
39	0x3cf60f61	0.03003663
40	0x3b0878b5	0.00208239
41	0xbd21246a	-0.039341368
42	0xbd148871	-0.036262933
43	0x3da4eaa8	0.0805257
44	0x3da73f29	0.08166344
45	0x3e45fd4b	0.19334905
46	0xbc2d6cfa	-0.010585064
47	0xbdb1005c	-0.08642647
48	0x3db230db	0.08700725
49	0x3db3d90b	0.08781632
50	0x3e414ff1	0.18878151
51	0x3e3669e6	0.17813835
52	0x3d1611a6	0.036637925
53	0xbc6441ed	-0.013931734
54	0x3e07f048	0.13275254
55	0x3cce95be	0.025217887
56	0x3daa1c78	0.08306211
57	0x3cc4cf91	0.024024757
58	0xbc3d6bff	-0.011561393
59	0x3df51df5	0.119686045
60	0xbda8734a	-0.08225115
61	0x3e345118	0.1760906
62	0x3d4e7568	0.050404936
63	0x3e0a2ee2	0.13494447
64	0x3e07280e	0.13198873
65	0x3d549646	0.051901124
66	0x3b6feebc	0.0036610803
67	0xbd3edda8	-0.046598107
68	0xbd612076	-0.054962598
69	0xbc3c43ff	-0.011490821
70	0x3e7a2b5e	0.24430606
71	0x3e2fb99d	0.1716065
72	0xbde356ac	-0.11100516
73	0xbd42cded	-0.047559667
74	0xbe012979	-0.12613477
75	0xbd8f8687	-0.07008081
76	0x3d8ba9cd	0.06819496
77	0x3c066da8	0.008204855
78	0xbc5806a7	-0.01318518
79	0x3d5a02e1	0.0532254
80	0x3e21501f	0.1575322
81	0x3db22c04	0.086998016
82	0xbd3b63ac	-0.04574935
83	0xbe53fc96	-0.20701823
84	0xbe524e34	-0.20537645
85	0xbe3d5b4c	-0.18491858
86	0xbe69f8a9	-0.22848763
87	0xbe15ebe6	-0.1464077
88	0xbda2cadd	-0.07948849
89	0xbe1b3fd3	-0.15161066
90	0xbe68d2ae	-0.22736618
91	0xbe953fbb	-0.29150185
92	0xbe7a49bd	-0.24442191
93	0xbde1eb23	-0.11031177
94	0xbd22257e	-0.039586537
95	0xbe2f700c	-0.17132586
96	0xbd94f6f6	-0.072736666
97	0xbd038177	-0.03210589
98	0xbda52fd3	-0.08065762
99	0x3d2db12b	0.04240529
100	0x3d842be3	0.06453683
101	0x3e23e729	0.1600615
102	0x3dbe2aa2	0.09285475
103	0xbca70c93	-0.020391738
104	0x3cae3f5f	0.021270452
105	0x3d93d82f	0.07218968
106	0xbd4e3cc7	-0.05035093
107	0x3d8fa09f	0.07013058
108	0xbe631339	-0.22175302
109	0x3bf1e399	0.007381868
110	0x3dba5e81	0.091000564
111	0x3d489168	0.048966795
112	0xbd85d011	-0.06533826
113	0xbdb1b0a4	-0.0867627
114	0xbdf48e98	-0.1194126
115	0xbcdf572f	-0.027263252
116	0xbe062138	-0.1309861
117	0xbe4e7dfa	-0.20165244
118	0xbe3be707	-0.18349849
119	0xbe1dc04d	-0.15405388
120	0x3d621c16	0.055202566
121	0xbc0735e9	-0.008252599
122	0xbd77b4ca	-0.06047515
123	0xbd55dc12	-0.05221183
124	0xbd493eba	-0.049132086
125	0xbcc245a2	-0.023714844
126	0xbce08149	-0.027405398
127	0xbda0ad70	-0.078455806
128	0xbdd0c8ad	-0.10194526
129	0xbd3acb7a	-0.045604207
130	0x3cccc3f1	0.024995776
131	0x3d37af37	0.044844832
132	0xbe18365e	-0.1486449
133	0xbde68c9d	-0.112572886
134	0xbd63cd4e	-0.055615716
135	0xbd4e17b0	-0.05031556
136	0xbda299f4	-0.079395205
137	0xbe1081d9	-0.14112033
138	0xbdf9f75c	-0.12205383
139	0xbe3d9e17	-0.18517338
140	0xbd8f578f	-0.06999122
141	0xbcdad625	-0.02671344
142	0x3c9f8fa2	0.01947767
143	0x3e3354fd	0.17512889
144	0x3c29756c	0.010342937
145	0x3d603016	0.05473336
146	0xbd4afccc	-0.049557492
147	0xbd1d4974	-0.03840013
148	0x3b932200	0.004490137
149	0xbd94fd1f	-0.072748415
150	0xbde31259	-0.11087484
151	0xbd7be6cf	-0.061499413
152	0xbd7c88e6	-0.061653994
153	0x3d301dcf	0.042997178
154	0x3d85772d	0.065168716
155	0x3e4ceffc	0.20013422
156	0xbd982db9	-0.07430596
157	0x3d02e770	0.031958997
158	0xbdef1aff	-0.11675071
159	0xbe25deb1	-0.16198231
160	0xbdf01a62	-0.11723782
161	0xbe440ec7	-0.19146262
162	0xbe4076b1	-0.18795277
163	0xbdaffbd3	-0.085929535
164	0xbddf00d7	-0.10888832
165	0xbde22660	-0.11042476
166	0x3afa4237	0.001909322
167	0x3db17b9d	0.086661555
168	0x3d7d5af5	0.06185432
169	0x3e247aa5	0.1606241
170	0x3e6712a8	0.2256571
171	0x3dc8af1b	0.09799024
172	0x3dd3c861	0.103409536
173	0x3d9c99b5	0.07646505
174	0x3da908d3	0.08253636
175	0x3d298ac6	0.04139211
176	0x3d913908	0.07090956
177	0x3e7755f0	0.24153876
178	0x3e347b1d	0.17625089
179	0x3e354ba1	0.17704631
180	0xbc8e1f3a	-0.017348874
181	0xbe1ef891	-0.15524508
182	0xbe6e983d	-0.23300262
183	0xbe711ae8	-0.2354542
184	0xbdd80072	-0.1054696
185	0x3d9138ad	0.07090888
186	0x3da81e23	0.08208873
187	0x3d5b1003	0.053482067
188	0xbd921b08	-0.07134062
189	0xbd1d5171	-0.038407747
190	0xbd04aa66	-0.032389067
191	0xbd42b1e5	-0.047532935
192	0x3cc0e850	0.023548275
193	0x3bf05278	0.00733405
194	0x3cd8d384	0.026468046
195	0x3e063b4e	0.1310856
196	0x3d318a79	0.04334495
197	0xbd80348a	-0.06260021
198	0xbd6fd06d	-0.05854838
199	0x3d27a7d1	0.040931527
200	0x3db6c3de	0.089240775
201	0x3da0a7ab	0.0784448
202	0x3c48178d	0.012212646
203	0x3c44a585	0.012002354
204	0x3c072e81	0.0082508335
205	0x3e08927f	0.13337134
206	0x3e4dd638	0.20101249
207	0x3e1ba890	0.1520102
208	0x3ccbed5b	0.024893453
209	0x3d3d4ee9	0.046217833
210	0x3dcca28d	0.099919416
211	0x3d9ec53a	0.07752462
212	0xbbb3828d	-0.0054782094
213	0x3cd064fd	0.02543878
214	0xbd1ccbba	-0.038280226
215	0x3e4779fb	0.19480126
216	0xbe597825	-0.21237238
217	0x3d29e030	0.041473567
218	0x3dab1fbd	0.08355663
219	0x3c813440	0.015771985
220	0x3d363d88	0.044492275
221	0x3d1d3195	0.038377363
222	0xbcb9d474	-0.022684313
223	0xbc8d815c	-0.017273597
224	0x3dd709c9	0.10499913
225	0x3d7ace63	0.061231982
226	0x3dccc0ba	0.09997697
227	0x3e183918	0.1486553
228	0x3dcc9ad5	0.09990469
229	0xbc8b302a	-0.01699074
230	0x3d8f85cb	0.07007941
231	0x3e286680	0.1644535
232	0x3e3a40b1	0.1818874
233	0x3d975606	0.073894545
234	0xbc27a96c	-0.010233264
235	0xbbd5edd4	-0.0065285955
236	0x3dc64573	0.09681215
237	0x3e44a83a	0.19204798
238	0x3dfc90ce	0.12332307
239	0xbe3a6809	-0.18203749
240	0xbe0d78d2	-0.1381562
241	0xbd3de205	-0.046358127
242	0x3ca425de	0.020037588
243	0x3dd27576	0.1027631
244	0x3d20c14e	0.03924685
245	0x3c9c5df8	0.019087777
246	0xba85df77	-0.0010213692
247	0xbc76552d	-0.015034956
248	0x3e0160e7	0.12634622
249	0x3dfa9352	0.1223513
250	0xbd394d4c	-0.04523973
251	0xbddee19b	-0.108828746
252	0x3e2fcb3e	0.17167374
253	0x3e272e2d	0.16326208
254	0x3d59da9d	0.053187
255	0x3d37b873	0.04485364

bias f4 [18]
0	0xb8442f6b	-4.6774203e-05
1	0x38404d26	4.5848217e-05
2	0x39175d36	0.00014435206
3	0x380c1ec5	3.3407257e-05
4	0xb7d408a1	-2.5276388e-05
5	0x388a6283	6.598702e-05
6	0x391cc9bd	0.00014952473
7	0x37cc439f	2.4350184e-05
8	0x3829f79b	4.052334e-05
9	0xb70fc2d8	-8.56883e-06
10	0xb823bfae	-3.9040744e-05
11	0x375dc688	1.3218851e-05
12	0x37d7f696	2.5744823e-05
13	0xb7f6315f	-2.9348475e-05
14	0xb897983b	-7.228596e-05
15	0x38c37579	9.3202056e-05
16	0x36d121a1	6.2326003e-06
17	0xb9155da7	-0.00014244636

weight f4 [18]
0	0x3fab79ef	1.3396586
1	0x3fa38602	1.2775271
2	0x3fa4ed7c	1.2884974
3	0x3fb23b59	1.3924361
4	0x3faffe24	1.3749433
5	0x3fb22e38	1.3920355
6	0x3fa73fed	1.3066384
7	0x3fb10dac	1.3832297
8	0x3fb3c2d9	1.4043838
9	0x3fab84b3	1.3399872
10	0x3fbbe036	1.4677799
11	0x3fa0a74e	1.2551057
12	0x3fa74a99	1.306964
13	0x3fa874b8	1.316062
14	0x3fa9f91d	1.3279148
15	0x3faccac1	1.3499376
16	0x3f9dcdce	1.2328432
17	0x3fbd0d9f	1.4769782

bias f4 [18]
0	0x3c731f7a	0.014839048
1	0x3cc4692b	0.02397593
2	0xbb11b576	-0.0022233403
3	0xb7229b3e	-9.692098e-06
4	0xbcf0c463	-0.02939052
5	0x3d88de46	0.0668302
6	0xbcce3f95	-0.025176803
7	0x3c9a897c	0.018864386
8	0x3d23b942	0.039971597
9	0xbc40c640	-0.0117660165
10	0xbcf3da5c	-0.029767208
11	0xbc8c90a7	-0.01715882
12	0x3c1d1d0f	0.009589448
13	0x3d4a6e68	0.049421698
14	0x3a5a2d5b	0.00083227985
15	0xbc8e2e1e	-0.017355975
16	0x3b3fb1c3	0.0029250241
17	0xbcb32b9b	-0.021871379

running_mean f4 [18]
0	0xc01f146a	-2.485621
1	0x3d0bfe20	0.0341779
2	0x404d977a	3.2123704
3	0xbe519a03	-0.20468907
4	0xbcfbf83a	-0.030758012
5	0xbe9f00c4	-0.31055272
6	0xbfb86804	-1.4406743
7	0x3f2b547e	0.669258
8	0x3f1c072e	0.60948455
9	0xbf11728c	-0.5681541
10	0xbf61ce1c	-0.8820512
11	0xbf106534	-0.56404424
12	0xbfaba7ec	-1.3410621
13	0xbf4faa02	-0.81118786
14	0xbff0b846	-1.8806236
15	0xbf8c280e	-1.0949724
16	0x3ffbcd96	1.9672115
17	0xbfdf5063	-1.7446407

running_var f4 [18]
0	0x4025d0f6	2.590879
1	0x4003ecb5	2.0613225
2	0x4026874d	2.602008
3	0x3fd2139d	1.6412235
4	0x40343d26	2.8162322
5	0x40327888	2.7886066
6	0x401fabc4	2.4948587
7	0x4010584c	2.2553892
8	0x3fba19b3	1.4539093
9	0x3ffc3a3e	1.9705274
10	0x409a71d4	4.826395
11	0x3ff459c2	1.9089892
12	0x402d1673	2.7044952
13	0x3f965cca	1.1747067
14	0x3ff79c4e	1.9344575
15	0x400a3814	2.1596727
16	0x40018c8b	2.024203
17	0x40845f0d	4.136603

weight f4 [4, 576]
0	0xbf03b436	-0.51446855
1	0xbe3a0fb1	-0.18170048
2	0x3e0a38f2	0.13498285
3	0xbc387e97	-0.01126065
4	0xbbedb96a	-0.007254769
5	0x3d73f5e1	0.05956066
6	0xbd4a2a2e	-0.049356632
7	0xbc30908d	-0.010776651
8	0x3c027c2a	0.007964173
9	0x3d65550b	0.055989306
10	0xbd16b4da	-0.036793567
11	0xbd9267d8	-0.07148713
12	0xbe600c14	-0.21879607
13	0xbdc7d761	-0.09757877
14	0x3d8fca60	0.07021022
15	0x3e4d4700	0.20046616
16	0x3d581fdd	0.052764762
17	0x3ca2884d	0.019840384
18	0xbb85d094	-0.0040837023
19	0xbd4fdc20	-0.050747037
20	0xbce319d0	-0.02772227
21	0xbd79bf2c	-0.06097333
22	0xbd4b6957	-0.049661007
23	0xbdbf49a7	-0.0934022
24	0xbdb262e6	-0.0871027
25	0xbea8f640	-0.33000374
26	0xbe197940	-0.1498766
27	0xbd65b927	-0.05608478
28	0x3dbca807	0.09211736
29	0x3c9e7db7	0.019347055
30	0x3dbbe6bf	0.09174871
31	0xbdc2dbc0	-0.0951457
32	0x3e82c241	0.2553883
33	0x3e3a6ca9	0.18205513
34	0x3d96591d	0.07341216
35	0x3b14aaef	0.0022684892
36	0xbda2c311	-0.07947362
37	0x3da0240d	0.07819376
38	0x3e6ce1a7	0.23132955
39	0x3ce0b257	0.027428789
40	0xbe3566af	-0.17714952
41	0xbe2562fe	-0.16151044
42	0x3d680fa3	0.056655537
43	0xbd6fae01	-0.058515552
44	0x3e2c36d4	0.1681779
45	0x3e31892a	0.1733748
46	0x3e2d678d	0.16934033
47	0xbe09cb14	-0.13456374
48	0xbd460d10	-0.0483523
49	0xbd7a5cae	-0.061123542
50	0xbd0fbe66	-0.035093687
51	0x3da51b29	0.08061821
52	0x3e8fe857	0.2810695
53	0xbc582f7b	-0.013194914
54	0x3bdf2263	0.006809519
55	0x3db6a3d3	0.08917966
56	0xba8f0429	-0.0010911274
57	0x3c7b8642	0.015351834
58	0x3dfad2dc	0.122472495
59	0x3e16fa11	0.1474383
60	0x3e1472da	0.14496937
61	0xbc8ef734	-0.01745186
62	0xbbe29db8	-0.006915774
63	0x3ca35225	0.01993663
64	0x3ed3610a	0.41284972
65	0x3e44785f	0.19186543
66	0x3dc55cf1	0.09636868
67	0xbc18b82a	-0.009321252
68	0x3e075867	0.13217317
69	0x3e625511	0.22102763
70	0x3d8a5e6f	0.06756293
71	0x3e67915e	0.22614047
72	0x3e0d681a	0.13809243
73	0x3d70b1fe	0.058763497
74	0x3e50d805	0.20394905
75	0x3e80aadb	0.25130352
76	0x3c554589	0.013017067
77	0x3e61f1d0	0.220649
78	0x3e97cc67	0.29648134
79	0x3d5f00ab	0.054443996
80	0x3e03906e	0.12848064
81	0x3e89710f	0.2684407
82	0x3e5e69b6	0.21720013
83	0x3c2be1ee	0.010490878
84	0x3dcdc61f	0.10047554
85	0x3e0838a3	0.13302855
86	0x3e1c209c	0.15246814
87	0xbd1478eb	-0.03624813
88	0x3c7fe5f2	0.015618788
89	0x3d719266	0.058977507
90	0x3d2f5b8f	0.042811926
91	0x3d5df1c8	0.05418566
92	0x3e85b4b7	0.26114437
93	0x3e4061f2	0.18787363
94	0x3e1b4f00	0.15166855
95	0x3e5e6d8c	0.21721476
96	0xbe1e5b79	-0.15464582
97	0xbe18342b	-0.1486365
98	0xbe0eece7	-0.13957559
99	0x3e2916ec	0.1651265
100	0x3dacf443	0.08445027
101	0x3d296f80	0.0413661
102	0xbd79c318	-0.06097707
103	0x3ce35dba	0.027754653
104	0xbdf9d80e	-0.12199412
105	0xbcd66881	-0.026172878
106	0x3e1e622b	0.15467136
107	0x3daa63f4	0.08319846
108	0xbe174671	-0.14772965
109	0xbd945ffa	-0.072448686
110	0xbd798f1b	-0.06092749
111	0xbdc888e1	-0.097917326
112	0x3d7f4be7	0.062328245
113	0xbd0c4425	-0.034244675
114	0x3d2b5066	0.04182472
115	0x3d1ca4dd	0.038243163
116	0xbca5aa8b	-0.020222923
117	0xbe632240	-0.22181034
118	0xbd6aa630	-0.057287395
119	0x3d742a3f	0.0596106
120	0xbda7220a	-0.08160789
121	0xbdf0d2fd	-0.11758993
122	0xbcf9e963	-0.030506795
123	0x3e179c6a	0.14805761
124	0x3e0535b6	0.1300877
125	0xbc61d5f5	-0.0137839215
126	0xbc86b9d5	-0.016446033
127	0x3bca713b	0.006178049
128	0x3ed96319	0.42458418
129	0x3e63c61e	0.22243544
130	0x3e33c545	0.17555721
131	0x3e5c1faf	0.21496461
132	0x3cec668a	0.028857488
133	0xbca3c8f3	-0.019993281
134	0x3e47a545	0.19496639
135	0x3e067712	0.13131359
136	0xbcb182c9	-0.021668809
137	0x3d91bd7f	0.07116222
138	0x3d10fa83	0.035395157
139	0x3e007095	0.12542947
140	0x3e0a00da	0.13476887
141	0xbcb4bba2	-0.022062127
142	0x3d8fc045	0.070190944
143	0x3e0152d4	0.12629253
144	0x3df06aad	0.11739097
145	0x3d433446	0.047657274
146	0x3e3d3965	0.18478926
147	0x3e07fecb	0.1328079
148	0x3e85863f	0.26078984
149	0x3c73194b	0.014837573
150	0xbd8ee260	-0.06976771
151	0x3e1514c4	0.14558703
152	0x3d9bfe73	0.07616892
153	0x3d5e428f	0.054262694
154	0x3dc777fd	0.09739683
155	0x3e443673	0.19161396
156	0x3ccfa421	0.025346817
157	0xbd1be08d	-0.038055945
158	0x3e159c6a	0.14610448
159	0x3cca3462	0.024683181
160	0xbeac05f1	-0.33598283
161	0xbe42e60a	-0.19033065
162	0x3dbd5fad	0.09246764
163	0x3d9e92c0	0.07742834
164	0xbda4b67c	-0.08042619
165	0xbeb6a93e	-0.35675997
166	0xbe7460c4	-0.23865038
167	0x3cfc3ab4	0.03078971
168	0x3e328e8e	0.17437193
169	0x3db5e725	0.08881978
170	0x3eb9421e	0.36183256
171	0x3e6bb18e	0.2301695
172	0x3d21eac9	0.03953055
173	0xbd6ef44c	-0.05833845
174	0x3d6190d9	0.055069778
175	0x3ccc8d4d	0.024969721
176	0x3de121c4	0.109927684
177	0x3d2ec6a4	0.042669907
178	0x3de9a864	0.11409071
179	0x3dc31fd5	0.09527556
180	0x3d6adea5	0.057341237
181	0x3b97308f	0.004613943
182	0xbc77329b	-0.015087749
183	0x3e37f0f2	0.17963007
184	0x3e8163f6	0.25271577
185	0x3d50dc1b	0.05099116
186	0x3e3a5081	0.18194772
187	0x3e472726	0.19448528
188	0xbd3f307c	-0.046677098
189	0xbd35cefe	-0.044386856
190	0x3e5a583c	0.21322721
191	0x3f170343	0.5898935
192	0x3d77dc36	0.060512744
193	0xbe6f1eae	-0.23351547
194	0xbdafc338	-0.08582157
195	0xbd9e9f17	-0.07745188
196	0xbe7a04d9	-0.24415912
197	0xbe017211	-0.12641169
198	0x3bc5c57c	0.006035505
199	0xbe7408de	-0.23831508
200	0xbe241129	-0.16022171
201	0xbda1bdb4	-0.07897511
202	0x3dcc56b1	0.099774726
203	0xbdbad922	-0.09123446
204	0xbd722ae1	-0.059122924
205	0xbe4d963b	-0.2007684
206	0xbe1844ab	-0.14869945
207	0xbdc9f099	-0.098603435
208	0x3cf854e8	0.030313924
209	0xbe575fb0	-0.21032596
210	0xbe46b6e1	-0.194057
211	0x3d091dae	0.03347557
212	0x3c9c05af	0.019045679
213	0xbdcf2f92	-0.10116495
214	0xbcd623f9	-0.0261402
215	0xbe0dfd1a	-0.13866082
216	0xbda6de33	-0.0814785
217	0xbe4277a1	-0.18990947
218	0xbddf1c2d	-0.10894046
219	0x3b08732a	0.0020820596
220	0xbdad4901	-0.0846119
221	0xbdc88ba8	-0.09792262
222	0xbc270f67	-0.010196543
223	0xbe2d8be7	-0.169479
224	0x3ea03f3e	0.3129825
225	0x3d69eeee	0.057112627
226	0xbd524a44	-0.051340356
227	0xbdae3bae	-0.08507477
228	0xbbd905ac	-0.0066229906
229	0x3d91ce96	0.07119481
230	0xbd287221	-0.041124467
231	0x3e1cfa7d	0.15329929
232	0x3dba702e	0.09103428
233	0x3dc1d3f9	0.09464259
234	0x3e692d92	0.2277129
235	0x3dcfac36	0.101402685
236	0x3db2254f	0.08698522
237	0x3bd35d12	0.006450304
238	0x3dcd8029	0.1003421
239	0x3cac2421	0.021013321
240	0x3df7edd2	0.121059075
241	0x3ddc41ed	0.10754762
242	0x3df75853	0.120773934
243	0x3d820a3b	0.063496076
244	0x3e18d6b8	0.14925659
245	0x3d9e030e	0.077154264
246	0x3e25c16a	0.16187063
247	0x3ce0d719	0.027446317
248	0x3d822e10	0.06356442
249	0x3dd90200	0.105960846
250	0x3d89bbbd	0.06725261
251	0xbcc318f6	-0.023815613
252	0x3deee14c	0.11664066
253	0x3db179b3	0.086657904
254	0x3e3454ee	0.17610523
255	0x3e86d162	0.2633162

bias f4 [4]
0	0xbdba4080	-0.09094334
1	0xbdcb4120	-0.09924531
2	0x3dbc317e	0.091891274
3	0x3e035116	0.128239
