LAB2/best/mode_SD.pth (torch, 42542 bytes, 14 tensors)

weight f4 [22, 1, 22, 1]
0.12552121 0.12176506 -0.26430058 0.025140747 0.05156889 -0.078767754 0.05596158 -0.04360155
-0.24799828 0.103997774 0.14150126 -0.20590173 -0.013565895 -0.17368072 0.119272724 0.26807564
-0.068051755 -0.03896872 0.13470957 -0.07732787 0.22676037 -0.22113283 -0.12455055 -0.02142306
-0.016116712 0.100278124 0.2631678 -0.20694025 0.09126236 0.1773217 -0.11587206 0.10987981
0.15652613 0.03844403 0.13598442 -0.11517139 -0.16063336 -0.015189929 -0.311387 -0.16342992
-0.11762292 0.14768957 0.19055313 0.103971615 0.04937633 -0.10994306 0.18141007 -0.09527296
-0.19475813 -0.021934157 0.18819432 -0.20048946 0.0567855 0.31577116 -0.035859104 0.28843442
-0.18008533 -0.1283054 -0.26539147 0.014860766 -0.029880747 0.16653363 0.26042184 -0.15859887
-0.10000647 0.08154305 -0.1913579 0.06781922 0.028415028 -0.036940552 -0.027351175 0.107785985
0.10606312 0.089517355 0.05936096 -0.009332035 0.06419894 0.08380452 0.065140426 -0.36145988
0.14766431 -0.36302534 0.33776018 -0.26815724 -0.050510854 0.01747629 -0.01649404 0.09590148
0.024583912 -0.12799934 -0.023537131 0.08040857 -0.046052538 0.03024524 0.0019529033 0.2308444
0.11274142 -0.33605763 0.12915643 0.18107922 -0.11306043 -0.19146198 0.043033466 0.16081738
-0.22311866 0.051145878 -0.04788969 0.2903672 -0.095999755 -0.10015676 0.15880422 -0.07455142
-0.15609865 0.1742102 -0.2951654 0.073233 -0.0020674076 -0.01372919 0.13947447 0.19784482
-0.024137601 -0.16426182 0.073280975 0.10340786 0.036589574 -0.17791602 -0.10184099 0.16032079
-0.20208038 0.2341547 -0.044356998 -0.02264804 0.17627159 -0.20929737 -0.16447307 0.23015171
-0.20107612 0.13585009 0.08775538 0.2626896 0.10653165 -0.095347874 -0.09698282 -0.13826025
-0.1523258 -0.0019104184 -0.33156538 -0.29812592 0.19451453 0.17668384 0.047407538 0.07714918
0.22383456 -0.15318577 -0.116311215 -0.19815391 0.05776337 -0.00082520675 -0.026168654 0.17168681
0.18181396 0.23514925 -0.19932546 0.27679464 0.07936641 0.010907801 -0.089839555 -0.118301
-0.21048887 0.15040985 -0.0515976 -0.077976085 0.15286924 -0.27789292 -0.18595421 0.15035638
-0.22861096 0.21242154 -0.19712237 0.03158216 -0.0968322 -0.07573779 -0.084890105 -0.11848676
-0.14680378 -0.10831022 -0.1334976 0.31087875 0.19669944 0.10857188 0.037604004 0.20986432
0.16964263 0.1630049 -0.109431736 -0.07879729 -0.12664528 -0.10892548 -0.05900416 0.05532441
0.11025416 -0.13680473 -0.1259281 0.28832862 -0.1373252 0.21494702 0.1333274 0.03836329
0.07863565 -0.2865683 -0.08302164 -0.29063556 -0.22848903 0.26142022 -0.019637726 -0.077623814
-0.041375235 0.0210172 0.14242698 0.08160004 0.01376155 -0.27023154 0.28386822 0.23340955
0.09602462 -0.06619334 -0.205974 0.06208837 -0.18069705 -0.14151138 -0.071012944 -0.044219323
-0.1453968 0.12504934 -0.03600998 -0.11049044 0.08461514 0.32219103 -0.11964036 0.13353634
-0.04675524 0.03180392 -0.070593156 0.055949513 0.13434957 0.15305445 -0.1926361 -0.22913438
-0.099947676 0.12791933 -0.25591803 -0.24285144 0.28866556 0.118283436 0.0797973 0.050543375
00000000: a288 003e f65f f93d 6852 87be f8f3 cd3c
00000010: e739 533d fd50 a1bd f837 653d 8a97 32bd
00000020: 43f3 7dbe c9fc d43d b5e5 103e e7d7 52be
00000030: 7d43 5ebc 5cd9 31be 4245 f43d 3641 893e
00000040: b85e 8bbd aa9d 1fbd 4ef1 093e 135e 9ebd
00000050: df33 683e a570 62be 5c14 ffbd 6a7f afbc
00000060: 3207 84bc 9e5e cd3d eebd 863e 25e8 53be
00000070: c3e7 ba3d d293 353e 554e edbd aa08 e13d
00000080: 6348 203e 7d77 1d3d 803f 0b3e fade ebbd
00000090: 127d 24be 2edf 78bc 1e6e 9fbe 2c5a 27be
000000a0: 49e4 f0bd ef3b 173e 5c20 433e 12ef d43d
000000b0: d63e 4a3d d429 e1bd 90c3 393e 781e c3bd
000000c0: ad6e 47be 43af b3bc 03b6 403e 1c4d 4dbe
000000d0: ea97 683d c2ac a13e ffe0 12bd adad 933e
000000e0: 4a68 38be 7e62 03be 64e1 87be 927a 733c
000000f0: 78c8 f4bc cb87 2a3e 0356 853e be67 22be
00000100: 31d0 ccbd 0b00 a73d 53f3 43be cee4 8a3d
00000110: a2c6 e83c fa4e 17bd 920f e0bc e6be dc3d
00000120: 9f37 d93d e054 b73d 7a24 733d 64e5 18bc
00000130: bc7a 833d b4a1 ab3d 5868 853d 4511 b9be
00000140: 5035 173e 75de b9be e7ee ac3e e84b 89be
00000150: 78e4 4ebd 702a 8f3c 821e 87bc ff67 c43d
00000160: 3364 c93c 4212 03be f1d0 c0bc 40ad a43d
00000170: 96a1 3cbd dec4 f73c 90f8 ff3a 7962 6c3e
00000180: f9e4 e63d bf0f acbe 9541 043e d56c 393e
00000190: 3a8c e7bd 9c0e 44be dc43 303d 50ad 243e
000001a0: 3879 64be 577e 513d fb27 44bd 02ab 943e
000001b0: 859b c4bd fd1e cdbd 939d 223e 6aae 98bd
000001c0: 53d8 1fbe 2964 323e eb1f 97be 2ffb 953d
000001d0: 587d 07bb 66f0 60bc 65d2 0e3e d597 4a3e
000001e0: 38bc c5bc 4034 28be 5614 963d 80c7 d33d
000001f0: f3de 153d 9e2f 36be 0292 d0bd 222b 243e
00000200: 29ee 4ebe 40c6 6f3e afaf 35bd 6288 b9bc
00000210: 8a80 343e 0d52 56be a16b 28be e4ac 6b3e
00000220: e6e6 4dbe 491c 0b3e 18b9 b33d 407f 863e
00000230: 442d da3d bf45 c3bd ee9e c6bd 1894 0dbe
00000240: 4bfb 1bbe 0167 faba f0c2 a9be f6a3 98be
00000250: d12e 473e 9cec 343e 682e 423d 6400 9e3d
00000260: e334 653e bbdc 1cbe 9334 eebd dce8 4abe
00000270: 4999 6c3d b052 58ba a55f d6bc abce 2f3e
00000280: 702d 3a3e f7ca 703e f91b 4cbe 07b8 8d3e
00000290: db8a a23d a2b6 323c cdfd b7bd cb47 f2bd
000002a0: 658a 57be 0a05 1a3e 0158 53bd edb1 9fbd
000002b0: c189 1c3e fb47 8ebe c86a 3ebe 06f7 193e
000002c0: fe18 6abe 0885 593e 72da 49be 4c5c 013d
000002d0: f64f c6bd 6a1c 9bbd ddda adbd 30a9 f2bd
000002e0: bb53 16be c0d1 ddbd 98b3 08be 802b 9f3e
000002f0: 946b 493e ef5a de3d a806 1a3d ace6 563e
00000300: ccb6 2d3e c2ea 263e bf1d e0bd 7960 a1bd
00000310: 4daf 01be 5214 dfbd 59ae 71bd d99b 623d
00000320: efcc e13d 8a16 0cbe 4cf3 00be cf9f 933e
00000330: fa9e 0cbe 121b 5c3e fa86 083e d322 1d3d
00000340: ba0b a13d 15b9 92be 4007 aabd 2fce 94be
00000350: 07f9 69be dfd8 853e 4cdf a0bc 3cf9 9ebd
00000360: 1479 29bd 432c ac3c 61d8 113e ec1d a73d
00000370: 2078 613c ca5b 8abe 2d57 913e ea02 6f3e
00000380: 8ea8 c43d 6090 87bd d9ea 52be 6050 7e3d
00000390: a608 39be 5ce8 10be 3c6f 91bd 521f 35bd
000003a0: e6e2 14be ef0c 003e 337f 13bd d048 e2bd
000003b0: b44a ad3d 39f6 a43e 0106 f5bd c0bd 083e
000003c0: 6c82 3fbd d444 023d 2593 90bd 512b 653d
000003d0: ef92 093e 4eba 1c3e 6642 45be 34a2 6abe
000003e0: 5eb1 ccbd 49fd 023e b007 83be 0cae 78be
000003f0: f9cb 933e 963e f23d c46c a33d 9206 4f3d

bias f4 [22]
-0.0003262333 4.825606e-06 0.00016802824 -0.00016325309 0.00019900758 -0.00023736146 -7.788653e-05 -9.7788225e-06
-0.00014464489 0.0006738147 5.388525e-05 0.00014445397 -0.0004249403 0.0004243608 -0.00017783757 -6.806509e-05
0.00021632499 -2.7677814e-05 0.00039631975 0.0002246476 0.0007333528 0.00028028697
00000000: 4b0a abb9 a4eb a136 bd30 3039 eb2e 2bb9
00000010: b1ac 5039 3be4 78b9 0357 a3b8 b90f 24b7
00000020: d1ab 17b9 f0a2 303a d902 6238 9178 1739
00000030: 86ca deb9 be7c de39 e979 3ab9 2bbe 8eb8
00000040: 4cd5 6239 a72d e8b7 23c9 cf39 628f 6b39
00000050: 793e 403a 7bf3 9239

weight f4 [22]
0.97674304 0.90742886 1.0196617 0.7288276 0.92197436 0.91889846 0.89246005 0.8365253
0.8093367 1.0095084 0.7434426 0.72086483 0.89038587 0.9650328 0.88706034 0.8071148
0.8681363 0.84387976 0.8972665 0.80816215 0.8882626 0.78158504
00000000: d50b 7a3f 424d 683f 4684 823f 7294 3a3f
00000010: 8306 6c3f ee3c 6b3f 4378 643f 8626 563f
00000020: b130 4f3f 9237 813f 4152 3e3f 998a 383f
00000030: 54f0 633f 640c 773f 6316 633f 139f 4e3f
00000040: 2e3e 5e3f 8108 583f 42b3 653f b7e3 4e3f
00000050: 2e65 633f f515 483f

bias f4 [22]
-0.041695155 -0.0039000863 -0.10056921 0.0050195986 0.15820566 0.047614764 0.30740252 -0.21723324
-0.10756275 -0.1728827 0.024205493 -0.3646502 0.0012306201 0.3207572 -0.40252987 -0.022317078
-0.6046988 -0.115749076 0.2170323 0.0991358 -0.040121116 0.028409079
00000000: 8ac8 2abd 9798 7fbb 3bf7 cdbd 727b a43b
00000010: aa00 223e b307 433d dd63 9d3e 6472 5ebe
00000020: dc49 dcbd 2a08 31be 994a c63c 6eb3 babe
00000030: c24c a13a 4a3a a43e 6518 cebe 4ed2 b6bc
00000040: 8acd 1abf da0d edbd b73d 5e3e b607 cb3d
00000050: 0a56 24bd 28ba e83c

running_mean f4 [22]
-3.364608e-05 0.00018940713 0.000185563 -0.00017647805 -0.00024330811 -1.1389012e-07 3.8089835e-05 -4.6968154e-05
-4.8590024e-05 0.00013986882 2.2720355e-06 -6.6304114e-05 -0.00011641332 0.000186517 2.6530908e-05 5.5256303e-05
-9.632186e-05 3.2150463e-05 0.00018529806 4.108209e-05 -4.4433495e-05 -3.8894144e-05
00000000: 341f 0db8 979b 4639 b093 4239 f70c 39b9
00000010: 8620 7fb9 c193 f4b3 a6c2 1f38 acff 44b8
00000020: 24cd 4bb8 c0a9 1239 4679 1836 c00c 8bb8
00000030: ed22 f4b8 c793 4339 b18e de37 01c3 6738
00000040: 6800 cab8 4cd9 0638 924c 4239 8f4f 2c38
00000050: 1a5e 3ab8 4522 23b8

running_var f4 [22]
0.019630656 0.024200972 0.022617305 0.023892058 0.008359659 0.011047942 0.03620825 0.04004318
0.15395711 0.03630607 0.044930726 0.018008057 0.011380349 0.0164537 0.016987553 0.023435969
0.029342452 0.015115411 0.03006932 0.12727039 0.010671921 0.017050225
00000000: 78d0 a03c 1e41 c63c ed47 b93c 47b9 c33c
00000010: f4f6 083c 6d02 353c 1a4f 143d 5104 243d
00000020: efa6 1d3e acb5 143d 4809 383d a285 933c
00000030: a574 3a3c e9c9 863c 7b29 8b3c cafc bf3c
00000040: 955f f03c a1a6 773c ef53 f63c 2b53 023e
00000050: 48d9 2e3c eaac 8b3c

weight f4 [20, 1, 22, 12]
0.008371241 -0.21559393 -0.12545028 0.12194015 0.14650922 -0.06837078 -0.066119194 -0.048423868
0.016166333 -0.094422385 -0.20851277 -0.03574515 0.15793811 -0.05375239 -0.09164153 0.017584346
0.05042496 -0.010929455 -0.0669399 -0.0012389126 0.032890934 -0.10720262 0.005262713 -0.056965902
-0.08389984 -0.02844427 0.050734688 0.15077052 0.04855466 -0.10276478 -0.054201674 0.07024795
0.0038025812 -0.083974384 -0.00852152 -0.13190776 -0.020367285 0.024960088 0.008922744 -0.0520439
0.05410345 0.010802436 0.08153275 -0.021754425 -0.045720346 0.026418818 0.0647593 -0.08721595
0.0062747165 0.08798613 -0.05935636 -0.18886532 -0.12245447 0.1321504 -0.028504161 -0.15079954
-0.011616018 0.08889191 0.070224516 0.0043611294 0.21744378 0.14577664 0.01629452 0.0057412484
0.012356793 0.00626929 0.006926316 0.002709074 -0.0508872 0.11481013 0.11129964 0.06495231
0.046482578 0.031360734 -0.124771155 -0.11839602 0.0039042584 0.10735287 0.028478123 -0.12553278
-0.008091823 0.07055835 -0.011938819 -0.05585058 0.061433297 0.019600313 -0.037988372 -0.030467669
0.077651605 0.075023025 -0.043775536 0.012930126 -0.000997684 0.016309373 0.04352583 -0.28228205
-0.038144168 -0.038410768 -0.06585541 -0.024795672 0.042972665 -0.019629939 -0.0844756 0.05804156
0.09377008 -0.08159046 -0.09430325 -0.026645077 -0.0023459382 0.19061284 0.06987966 0.007610801
-0.14167388 0.024923705 0.15152368 0.036315132 -0.08263549 0.12410749 0.19856024 -0.021869088
0.0771693 -0.14414486 -0.11781823 0.20116371 0.045463584 -0.04016581 -0.008880336 0.16926181
-0.006913493 -0.22151892 0.05471726 0.19007377 0.050572604 0.011446237 -0.09938444 -0.04313647
0.015313238 0.014571259 -0.09575622 -0.092689775 0.0060456167 0.05754948 -0.044053633 -0.057795476
0.08930749 -0.08322105 -0.11637981 -0.11693119 -0.023794122 0.09181623 -0.16585197 -0.29699537
-0.062601015 0.115993135 0.043277524 -0.07849885 -0.11819037 0.11850771 -0.037817676 -0.15570152
-0.20493804 -0.05144445 -0.05787626 -0.14111726 -0.049752984 0.10001976 0.065471 0.009421967
0.37104106 -0.15689771 -0.06670708 0.17528659 0.1353797 -0.0761622 -0.10391975 0.031738196
0.090813726 -0.121562555 -0.13734874 0.12923375 0.015284791 0.12382395 0.07779846 -0.09318969
-0.060502436 0.09050243 0.13070062 -0.022487104 -0.033103902 0.08741018 0.1742732 -0.01834407
0.22199057 0.1993005 0.016155498 -0.13801262 0.057618372 0.17720403 0.10785861 -0.05181197
0.04449526 0.23251677 0.04929703 0.09029393 -0.19003418 0.04510022 -0.053982247 -0.19747256
0.025134355 0.22802293 0.13224398 -0.0637389 -0.04739369 0.0650133 -0.013237021 -0.26208505
0.1435088 0.07688318 0.034559697 -0.07953181 -0.039523825 0.032075074 -0.02626997 -0.25970888
-0.11739274 0.13416132 0.011328388 0.04759794 0.05447395 0.2276571 0.04470932 0.012941256
0.034766745 0.032511618 0.019109506 0.062253833 -0.0075798673 -0.09771372 0.00192545 0.0513442
0.029986223 0.084291436 0.049529828 -0.16978048 -0.09569588 0.028944861 0.05947794 0.00023965306
-0.056106288 0.066713445 0.18509477 -0.10836033 -0.038848855 0.13684896 -0.07712593 -0.15091936
00000000: 8827 093c a8c4 5cbe 0a76 00be c2bb f93d
00000010: 8306 163e fb05 8cbd 8069 87bd 1b58 46bd
00000020: 426f 843c 8660 c1bd 5f84 55be 8269 12bd
00000030: 87ba 213e 772b 5cbd 8eae bbbd 0c0d 903c
00000040: 678a 4e3d 7511 33bc c917 89bd 0263 a2ba
00000050: a5b8 063d 0c8d dbbd d672 ac3b 1455 69bd
00000060: aed3 abbd f503 e9bc 2dcf 4f3d 9663 1a3e
00000070: 40e1 463d 5776 d2bd 9302 5ebd 28de 8f3d
00000080: ba34 793b c3fa abbd d89d 0bbc d412 07be
00000090: 4bd9 a6bc 1979 cc3c b330 123c fc2b 55bd
000000a0: 949b 5d3d b3fc 303c a4fa a63d 5636 b2bc
000000b0: 4245 3bbd 476c d83c 86a0 843d 479e b2bd
000000c0: 239c cd3b 1232 b43d a81f 73bd e965 41be
000000d0: 69c9 fabd 6f52 073e 8f81 e9bc 326b 1abe
000000e0: 1c51 3ebc f60c b63d dfd1 8f3d cee7 8e3b
000000f0: 95a9 5e3e 7946 153e 167c 853c 1521 bc3b
00000100: 2574 4a3c 9e6e cd3b 26f6 e23b b88a 313b
00000110: 196f 50bd 9321 eb3d 11f1 e33d b705 853d
00000120: 8464 3e3d 1d74 003d 0588 ffbd 9d79 f2bd
00000130: 96de 7f3b d2db db3d f44a e93c aa8b 00be
00000140: 9193 04bc e580 903d 099b 43bc 94c3 64bd
00000150: 7ba1 7b3d d690 a03c b299 1bbd 5597 f9bc
00000160: ce07 9f3d aca5 993d fa4d 33bd e1d8 533c
00000170: b8c4 82ba 3c9b 853c 2448 323d 4687 90be
00000180: 0f3d 1cbd 9c54 1dbd 34df 86bd 4b20 cbbc
00000190: 1b04 303d f7ce a0bc 8b01 adbd fdbc 6d3d
000001a0: 870a c03d e618 a7bd 1022 c1bd c746 dabc
000001b0: 50be 19bb 0330 433e 111d 8f3d 0764 f93b
000001c0: f512 11be cc2c cc3c 0629 1b3e 2dbf 143d
000001d0: cc3c a9bd 112c fe3d 6053 4b3e cd26 b3bc
000001e0: f00a 9e3d b69a 13be af4a f1bd dcfd 4d3e
000001f0: 0638 3a3d e884 24bd d47e 11bc f852 2d3e
00000200: 958a e2bb dbd5 62be 351f 603d b3a2 423e
00000210: 3825 4f3d ff88 3b3c 128a cbbd deaf 30bd
00000220: 60e4 7a3c 4abc 6e3c d61b c4bd 23d4 bdbd
00000230: 4f1a c63b 01b9 6b3d 9571 34bd f3ba 6cbd
00000240: d8e6 b63d cc6f aabd 8a58 eebd 9f79 efbd
00000250: e4eb c2bc 260a bc3d 19d5 29be c70f 98be
00000260: f634 80bd cf8d ed3d c643 313d 01c4 a0bd
00000270: cb0d f2bd 2cb4 f23d b5e6 1abd 3870 1fbe
00000280: 47db 51be 6ab7 52bd a80f 6dbd 0b81 10be
00000290: c9c9 4bbd 29d7 cc3d a915 863d 985e 1a3c
000002a0: 18f9 bd3e cba9 20be b99d 88bd 547e 333e
000002b0: faa0 0a3e edfa 9bbd e1d3 d4bd e9ff 013d
000002c0: 8cfc b93d caf5 f8bd 26a5 0cbe da55 043e
000002d0: 0f6d 7a3c 6997 fd3d cd54 9f3d 3cda bebd
000002e0: 67d1 77bd 5759 b93d 62d6 053e e036 b8bc
000002f0: f597 07bd 1c04 b33d ac74 323e 4e46 96bc
00000300: 7f51 633e 6e15 4c3e 8958 843c 2e53 0dbe
00000310: 3e01 6c3d f974 353e fae4 dc3d ca38 54bd
00000320: a940 363d e018 6e3e afeb 493d 06ec b83d
00000330: 5298 42be 02bb 383d 7d1c 5dbd 3f36 4abe
00000340: 90e6 cd3c d87e 693e f76a 073e 8a89 82bd
00000350: e31f 42bd b125 853d 17e0 58bc 0330 86be
00000360: f9f3 123e ee74 9d3d 788e 0d3d 93e1 a2bd
00000370: bce3 21bd 2761 033d 1f34 d7bc 90f8 84be
00000380: 9b6b f0bd 9661 093e b49a 393c 0ff6 423d
00000390: 1420 5f3d f11e 693e 1f21 373d 9007 543c
000003a0: 9367 0e3d e72a 053d 8a8b 9c3c e0fd 7e3d
000003b0: 8960 f8bb 211e c8bd 625f fc3a 4c4e 523d
000003c0: aba5 f53c fda0 ac3d cadf 4a3d efda 2dbe
000003d0: 34fc c3bd c61d ed3c 249f 733d 614b 7b39
000003e0: b5cf 65bd 0fa1 883d 7c89 3d3e 05ec ddbd
000003f0: fa1f 1fbd 2222 0c3e 33f4 9dbd 9b8a 1abe

bias f4 [20]
-7.472332e-06 6.15545e-05 9.987979e-06 5.3349348e-05 7.693334e-05 5.0129734e-06 3.76256e-05 -6.234588e-07
-2.5459707e-05 9.0384376e-05 1.6619664e-05 -2.6381213e-05 0.00018146702 -1.4610795e-05 4.0574876e-05 -3.7112524e-05
-2.3889053e-05 -4.1334548e-05 -8.078434e-06 8.396643e-06
00000000: d8ba fab6 d216 8138 0b92 2737 6dc3 5f38
00000010: 4657 a138 1d35 a836 2ed0 1d38 c35b 27b5
00000020: 4e92 d5b7 be8c bd38 756a 8b37 394d ddb7
00000030: 2f48 3e39 e320 75b7 f12e 2a38 45a9 1bb8
00000040: 5a65 c8b7 a25e 2db8 9c88 07b7 4fdf 0c37

weight f4 [20]
1.3927952 1.4207803 1.348322 1.2991134 1.2990791 1.4004197 1.5550921 1.4941491
1.3205332 1.3936404 1.490312 1.3702912 1.3771763 1.3461677 1.4574603 1.4378817
1.3895692 1.5202266 1.4383403 1.4232069
00000000: 1d47 b23f 21dc b53f d195 ac3f 5949 a63f
00000010: 3948 a63f f440 b33f 420d c73f 4740 bf3f
00000020: 3b07 a93f cf62 b23f 8bc2 be3f b465 af3f
00000030: 5047 b03f 394f ac3f 0f8e ba3f 820c b83f
00000040: 67dd b13f c996 c23f 891b b83f a52b b63f

bias f4 [20]
0.0033415596 0.026132615 0.016416272 0.040054724 -0.018143756 0.008617053 -0.0035026774 -0.0032042551
-0.055092365 0.02154998 -0.024584033 0.04148998 -0.004566139 -0.0224386 0.01138461 0.057321638
-0.018249828 0.0029875976 0.0011168557 0.008577539
00000000: 11fe 5a3b 1114 d63c 6b7b 863c 6c10 243d
00000010: 37a2 94bc 8a2e 0d3c 2d8d 65bb 7bfe 51bb
00000020: 88a8 61bd 9589 b03c 7464 c9bc 66f1 293d
00000030: 8d9f 95bb 28d1 b7bc 8486 3a3c 18ca 6a3d
00000040: aa80 95bc 92cb 433b 7563 923a ce88 0c3c

running_mean f4 [20]
-0.7655703 -0.9384596 0.49611905 0.24780507 -1.114412 0.26363352 0.016120417 0.21515138
-0.12707682 0.50451016 -0.01256591 -0.027403353 -0.96048397 0.03520379 -0.13827068 -0.61016387
1.4262365 -0.13665262 -0.6619448 0.3765339
00000000: 6afc 43bf e33e 70bf 5103 fe3e 9dc0 7d3e
00000010: 0da5 8ebf f9fa 863e f70e 843c a550 5c3e
00000020: 6d20 02be 9427 013f 3fe1 4dbc ff7c e0bc
00000030: 47e2 75bf d931 103d d496 0dbe b333 1cbf
00000040: eb8e b63f aaee 0bbe 3775 29bf 0dc9 c03e

running_var f4 [20]
1.8171568 2.6615262 1.5646709 1.8158653 2.152573 1.2419515 4.2958546 2.7599876
2.0828865 2.143664 3.6902776 2.9067008 1.4843801 1.8965434 1.9930128 2.9117463
1.28955 1.3625138 2.6953912 2.3702593
00000000: 9898 e83f 7256 2a40 2347 c83f 466e e83f
00000010: c2c3 0940 44f8 9e3f a477 8940 a3a3 3040
00000020: 034e 0540 ca31 0940 822d 6c40 6307 3a40
00000030: 2b00 be3f efc1 f23f 0b1b ff3f 0d5a 3a40
00000040: f90f a53f da66 ae3f 4a81 2c40 54b2 1740

weight f4 [4, 640]
0.56135976 0.17442408 -0.024644187 0.08609269 0.039692342 0.030223235 -0.06798343 0.028616881
0.076676294 0.069213204 0.14191747 0.23367642 0.051370256 -0.14348279 -0.10240632 -0.03184838
-0.0144434 0.032407846 -0.077648826 -0.07880765 0.096778944 -0.01597693 -0.03457687 0.0074198633
0.05583134 -0.12770122 -0.012452832 0.09150347 0.1282167 0.037071954 0.041716684 0.033700626
-0.09438301 -0.2649026 -0.05871955 0.048260976 -0.010856302 0.0021001461 -0.101634674 0.06629645
-0.09563561 -0.15501565 -0.21128637 -0.026854314 -0.008907599 -0.19887948 0.0979287 0.13615395
0.12443487 -0.27140892 -0.053017043 -0.07221862 -0.23411536 -0.19959003 0.097506456 0.20127352
0.05991294 -0.19100012 -0.048792653 0.051988617 0.06771001 -0.07124599 0.16719247 -0.081251055
0.11221645 -0.07778634 -0.088067874 -0.046516 0.11903379 -0.07272782 -0.13414145 -0.10681327
0.2664477 0.122711524 0.27321738 0.21386796 0.29766172 0.07928343 0.116227426 -0.048566375
0.052683674 0.07681979 0.023716768 -0.0534925 0.18169282 0.18998843 0.1303038 0.13132511
0.15096135 0.14015238 0.07440645 0.24023436 0.04727492 0.12518704 0.028381877 0.11150928
-0.109806076 -0.5361916 -0.21287896 0.0019891765 -0.020619905 0.09057801 -0.03252262 -0.21132112
-0.11024738 -0.082282424 -0.13557038 0.16237326 0.011040911 -0.045012664 -0.21346039 -0.21553235
-0.09213366 -0.056588452 -0.123444356 -0.049874395 -0.1252919 -0.016380882 -0.23900749 -0.09267988
-0.18559769 0.023408959 -0.095487915 0.09401108 0.042237606 -0.068764105 -0.21041916 -0.14496575
0.2804252 0.086478814 0.0011276676 0.16730915 0.039822277 0.048334714 -0.05254921 -0.19383392
-0.13030449 -0.053846445 -0.04304454 -0.1587189 0.013048457 -0.090792455 -0.14626099 0.034347747
0.13435301 -0.0022158506 0.06403022 0.08392362 -0.01718607 -0.07698491 0.13758749 0.010946931
0.03236359 0.042095706 0.07801462 -0.029862022 -0.19996274 0.028436711 -0.14633125 -0.06712197
-0.78796595 -0.6096916 -0.45035723 -0.26538295 -0.17150292 -0.22833997 -0.41946417 -0.12624882
-0.17392993 -0.18599044 -0.119189605 -0.10852102 -0.2924945 -0.29518792 -0.23149852 -0.054512117
-0.1751572 -0.23500416 -0.024292082 -0.017641492 -0.23189549 -0.16728348 -0.065684535 -0.04302758
-0.099054806 0.061704136 -0.032062713 -0.082091175 0.0023341707 -0.20851555 -0.14841609 0.08815592
-1.0885259 -0.8388984 -0.47201937 -0.26290992 -0.0077152913 -0.11842163 -0.23082972 -0.12906332
-0.18520236 -0.20768942 -0.032835677 -0.036541656 -0.41139233 -0.21005861 -0.35436314 -0.25258955
-0.10853156 0.00717322 -0.0064159017 -0.034553837 -0.1742782 -0.09888515 -0.12617156 -0.12809557
-0.17857419 -0.02124665 -0.1306187 -0.030527163 -0.124068365 -0.18931723 -0.27847922 0.13106374
-1.0600388 -0.83575284 -0.5145411 -0.16995753 0.0017497648 -0.18373136 -0.13135456 -0.22765397
-0.23684731 -0.24650495 -0.09213666 -0.15114352 -0.38026845 -0.2598219 -0.14738682 -0.22709018
-0.13030635 0.04062919 0.003791183 -0.13846384 0.033571765 -0.080973014 0.103039294 -0.017299915
-0.032668658 -0.0075820605 -0.025711156 0.07888437 -0.058680657 -0.016956136 0.053338952 0.20181122
00000000: 46b5 0f3f 3a9c 323e 9be2 c9bc 5d51 b03d
00000010: 7094 223d b896 f73c e63a 8bbd f36d ea3c
00000020: 7608 9d3d a7bf 8d3d d052 113e df48 6f3e
00000030: 9e69 523d 27ed 12be 68ba d1bd 7273 02bd
00000040: 03a4 6cbc 17be 043d 5906 9fbd e865 a1bd
00000050: 0a34 c63d 0de2 82bc 7aa0 0dbd 5322 f33b
00000060: 67af 643d 1cc4 02be f706 4cbc 2c66 bb3d
00000070: 3d4b 033e c3d8 173d 1ddf 2a3d ab09 0a3d
00000080: e14b c1bd 50a1 87be e983 70bd 4dad 453d
00000090: a2de 31bc 9ba2 093b d725 d0bd 6fc6 873d
000000a0: 9adc c3bd 6cbc 1ebe 745b 58be 94fd dbbc
000000b0: 2ef1 11bc 10a7 4bbe d88e c83d f16b 0b3e
000000c0: b6d7 fe3d 1cf6 8abe 6628 59bd 5be7 93bd
000000d0: f0bb 6fbe 5461 4cbe 77b1 c73d a51a 4e3e
000000e0: 4567 753d 8995 43be ceda 47bd 04f2 543d
000000f0: 8cab 8a3d 6be9 91bd 8134 2b3e f466 a6bd
00000100: bdd1 e53d 724e 9fbd ee5c b4bd 9087 3ebd
00000110: fdc7 f33d 53f2 94bd 605c 09be eac0 dabd
00000120: d56b 883e 2e50 fb3d 26e3 8b3e 3400 5b3e
00000130: 1e67 983e 5a5f a23d a508 ee3d 89ed 46bd
00000140: d6ca 573d b253 9d3d ab49 c23c f41a 5bbd
00000150: af0d 3a3e 548c 423e 5c6e 053e 177a 063e
00000160: 9d95 1a3e 1b84 0f3e 6962 983d ffff 753e
00000170: 59a3 413d 0831 003e 1c81 e83c fa5e e43d
00000180: 02e2 e0bd da43 09bf f1fc 59be d85c 023b
00000190: 13eb a8bc f780 b93d 7036 05bd 9064 58be
000001a0: 61c9 e1bd b083 a8bd f6d2 0abe 2d45 263e
000001b0: f0e4 343c 335f 38bd 5c95 5abe 83b4 5cbe
000001c0: 93b0 bcbd 4bc9 67bd 65d0 fcbd 1849 4cbd
000001d0: 854c 00be 3331 86bc 61be 74be f3ce bdbd
000001e0: 520d 3ebe 25c4 bf3c 2b8f c3bd e288 c03d
000001f0: 5701 2d3d 32d4 8cbd 1f78 57be e771 14be
00000200: e493 8f3e ce1b b13d 3fce 933a 1753 2b3e
00000210: af1c 233d 9ffa 453d d73d 57bd 667c 46be
00000220: 8a6e 05be 178e 5cbd 794f 30bd 3587 22be
00000230: 32c9 553c 65f1 b9bd 71c5 15be 39b0 0c3d
00000240: d693 093e ce37 11bb 4722 833d 26e0 ab3d
00000250: cdc9 8cbc 44aa 9dbd bce3 0c3e c25a 333c
00000260: af8f 043d 8c6c 2c3d 21c6 9f3d 33a1 f4bc
00000270: 08c3 4cbe 1bf4 e83c dcd7 15be 3e77 89bd
00000280: 23b8 49bf c014 1cbf 3995 e6be 46e0 87be
00000290: 769e 2fbe f4d1 69be 02c4 d6be 5f47 01be
000002a0: b01a 32be 4774 3ebe ae19 f4bd 4540 debd
000002b0: d7c1 95be df22 97be f30d 6dbe 1948 5fbd
000002c0: 695c 33be eea4 70be 3000 c7bc e484 90bc
000002d0: 0376 6dbe 5c4c 2bbe 9d85 86bd b03d 30bd
000002e0: 3fdd cabd 7abd 7c3d 3154 03bd 6b1f a8bd
000002f0: e3f8 183b 1a85 55be 63fa 17be 178b b43d
00000300: d154 8bbf 0cc2 56bf 86ac f1be 219c 86be
00000310: 8ed0 fcbb 0a87 f2bd a05e 6cbe 2d29 04be
00000320: b0a5 3dbe 89ac 54be b47e 06bd b4ac 15bd
00000330: 04a2 d2be 9b19 57be 166f b5be 6b53 81be
00000340: cb45 debd 550d eb3b 7c3c d2bb 5388 0dbd
00000350: fc75 32be 4c84 cabd 1e33 01be 7c2b 03be
00000360: 27dc 36be 740d aebc e9c0 05be 1a14 fabc
00000370: 8e17 febd 60dc 41be d494 8ebe 9335 063e
00000380: 5aaf 87bf e6f3 55bf f7b8 03bf 5909 2ebe
00000390: 5d58 e53a 1324 3cbe cf81 06be 1f1e 69be
000003a0: 1a88 72be cb6b 7cbe 25b2 bcbd 5ec5 1abe
000003b0: 8cb2 c2be 6007 85be 92ec 16be 548a 68be
000003c0: 076f 05be cb6a 263d 7f75 783b 77c9 0dbe
000003d0: 8c82 093d 2ed5 a5bd 4406 d33d 8db8 8dbc
000003e0: 92cf 05bd ef72 f8bb 34a0 d2bc 218e a13d
000003f0: 215b 70bd 98e7 8abc f279 5a3d 9aa7 4e3e

bias f4 [4]
-0.22909084 -0.039507806 0.16284251 0.098982364
00000000: ca96 6abe f0d2 21bd 30c0 263e 44b7 ca3d
